{
  "layers" : [
    {
      "pad_r" : 1,
      "fused_relu" : 1,
      "fused_tanh" : 0,
      "debug_info" : "conv1",
      "pad_fill_mode" : 0,
      "pad_b" : 1,
      "pad_l" : 1,
      "top" : "conv1",
      "blob_weights" : 3,
      "K" : 3,
      "blob_biases" : 1,
      "stride_x" : 2,
      "name" : "conv1",
      "has_batch_norm" : 0,
      "type" : "convolution",
      "n_groups" : 1,
      "pad_t" : 1,
      "stride_y" : 2,
      "has_biases" : 1,
      "C" : 8,
      "bottom" : "data",
      "weights" : {

      },
      "Nx" : 3,
      "pad_mode" : 0,
      "pad_value" : 0,
      "Ny" : 3,
      "n_parallel" : 1
    },
    {
      "pad_r" : 0,
      "fused_relu" : 1,
      "fused_tanh" : 0,
      "debug_info" : "conv1_proj",
      "pad_fill_mode" : 0,
      "pad_b" : 0,
      "pad_l" : 0,
      "top" : "conv1_proj",
      "blob_weights" : 7,
      "K" : 8,
      "blob_biases" : 5,
      "name" : "conv1_proj",
      "has_batch_norm" : 0,
      "type" : "convolution",
      "n_groups" : 1,
      "pad_t" : 0,
      "has_biases" : 1,
      "C" : 16,
      "bottom" : "conv1",
      "weights" : {

      },
      "Nx" : 1,
      "pad_mode" : 0,
      "pad_value" : 0,
      "Ny" : 1,
      "n_parallel" : 1
    },
    {
      "pad_r" : 1,
      "fused_relu" : 1,
      "fused_tanh" : 0,
      "debug_info" : "block1_conv_a",
      "pad_fill_mode" : 0,
      "pad_b" : 1,
      "pad_l" : 1,
      "top" : "block1_conv_a",
      "blob_weights" : 11,
      "K" : 16,
      "blob_biases" : 9,
      "name" : "block1_conv_a",
      "has_batch_norm" : 0,
      "type" : "convolution",
      "n_groups" : 16,
      "pad_t" : 1,
      "has_biases" : 1,
      "C" : 16,
      "bottom" : "conv1_proj",
      "weights" : {

      },
      "Nx" : 3,
      "pad_mode" : 0,
      "pad_value" : 0,
      "Ny" : 3,
      "n_parallel" : 1
    },
    {
      "pad_r" : 0,
      "fused_relu" : 0,
      "fused_tanh" : 0,
      "debug_info" : "block1_conv_b",
      "pad_fill_mode" : 0,
      "pad_b" : 0,
      "pad_l" : 0,
      "top" : "block1_conv_b",
      "blob_weights" : 15,
      "K" : 16,
      "blob_biases" : 13,
      "name" : "block1_conv_b",
      "has_batch_norm" : 0,
      "type" : "convolution",
      "n_groups" : 1,
      "pad_t" : 0,
      "has_biases" : 1,
      "C" : 16,
      "bottom" : "block1_conv_a",
      "weights" : {

      },
      "Nx" : 1,
      "pad_mode" : 0,
      "pad_value" : 0,
      "Ny" : 1,
      "n_parallel" : 1
    },
    {
      "bottom" : "conv1_proj,block1_conv_b",
      "alpha" : 1,
      "operation" : 0,
      "weights" : {

      },
      "fused_relu" : 0,
      "debug_info" : "block1_eltsum",
      "top" : "block1_eltsum_8block1_relu_after_sum",
      "type" : "elementwise",
      "name" : "block1_eltsum",
      "beta" : 0
    },
    {
      "bottom" : "block1_eltsum_8block1_relu_after_sum",
      "weights" : {

      },
      "mode" : 0,
      "debug_info" : "block1_relu_after_sum",
      "top" : "block1_eltsum",
      "type" : "activation",
      "name" : "block1_relu_after_sum"
    },
    {
      "pad_r" : 0,
      "fused_relu" : 0,
      "fused_tanh" : 0,
      "debug_info" : "block2_conv_proj",
      "pad_fill_mode" : 0,
      "pad_b" : 0,
      "pad_l" : 0,
      "top" : "block2_conv_proj",
      "blob_weights" : 19,
      "K" : 16,
      "blob_biases" : 17,
      "stride_x" : 2,
      "name" : "block2_conv_proj",
      "has_batch_norm" : 0,
      "type" : "convolution",
      "n_groups" : 1,
      "pad_t" : 0,
      "stride_y" : 2,
      "has_biases" : 1,
      "C" : 32,
      "bottom" : "block1_eltsum",
      "weights" : {

      },
      "Nx" : 1,
      "pad_mode" : 0,
      "pad_value" : 0,
      "Ny" : 1,
      "n_parallel" : 1
    },
    {
      "pad_r" : 1,
      "fused_relu" : 1,
      "fused_tanh" : 0,
      "debug_info" : "block2_conv_a",
      "pad_fill_mode" : 0,
      "pad_b" : 1,
      "pad_l" : 1,
      "top" : "block2_conv_a",
      "blob_weights" : 23,
      "K" : 16,
      "blob_biases" : 21,
      "stride_x" : 2,
      "name" : "block2_conv_a",
      "has_batch_norm" : 0,
      "type" : "convolution",
      "n_groups" : 16,
      "pad_t" : 1,
      "stride_y" : 2,
      "has_biases" : 1,
      "C" : 16,
      "bottom" : "block1_eltsum",
      "weights" : {

      },
      "Nx" : 3,
      "pad_mode" : 0,
      "pad_value" : 0,
      "Ny" : 3,
      "n_parallel" : 1
    },
    {
      "pad_r" : 0,
      "fused_relu" : 0,
      "fused_tanh" : 0,
      "debug_info" : "block2_conv_b",
      "pad_fill_mode" : 0,
      "pad_b" : 0,
      "pad_l" : 0,
      "top" : "block2_conv_b",
      "blob_weights" : 27,
      "K" : 16,
      "blob_biases" : 25,
      "name" : "block2_conv_b",
      "has_batch_norm" : 0,
      "type" : "convolution",
      "n_groups" : 1,
      "pad_t" : 0,
      "has_biases" : 1,
      "C" : 32,
      "bottom" : "block2_conv_a",
      "weights" : {

      },
      "Nx" : 1,
      "pad_mode" : 0,
      "pad_value" : 0,
      "Ny" : 1,
      "n_parallel" : 1
    },
    {
      "bottom" : "block2_conv_proj,block2_conv_b",
      "alpha" : 1,
      "operation" : 0,
      "weights" : {

      },
      "fused_relu" : 0,
      "debug_info" : "block2_eltsum",
      "top" : "block2_eltsum_14block2_relu_after_sum",
      "type" : "elementwise",
      "name" : "block2_eltsum",
      "beta" : 0
    },
    {
      "bottom" : "block2_eltsum_14block2_relu_after_sum",
      "weights" : {

      },
      "mode" : 0,
      "debug_info" : "block2_relu_after_sum",
      "top" : "block2_eltsum",
      "type" : "activation",
      "name" : "block2_relu_after_sum"
    },
    {
      "pad_r" : 1,
      "fused_relu" : 1,
      "fused_tanh" : 0,
      "debug_info" : "block3_conv_a",
      "pad_fill_mode" : 0,
      "pad_b" : 1,
      "pad_l" : 1,
      "top" : "block3_conv_a",
      "blob_weights" : 31,
      "K" : 32,
      "blob_biases" : 29,
      "name" : "block3_conv_a",
      "has_batch_norm" : 0,
      "type" : "convolution",
      "n_groups" : 32,
      "pad_t" : 1,
      "has_biases" : 1,
      "C" : 32,
      "bottom" : "block2_eltsum",
      "weights" : {

      },
      "Nx" : 3,
      "pad_mode" : 0,
      "pad_value" : 0,
      "Ny" : 3,
      "n_parallel" : 1
    },
    {
      "pad_r" : 0,
      "fused_relu" : 0,
      "fused_tanh" : 0,
      "debug_info" : "block3_conv_b",
      "pad_fill_mode" : 0,
      "pad_b" : 0,
      "pad_l" : 0,
      "top" : "block3_conv_b",
      "blob_weights" : 35,
      "K" : 32,
      "blob_biases" : 33,
      "name" : "block3_conv_b",
      "has_batch_norm" : 0,
      "type" : "convolution",
      "n_groups" : 1,
      "pad_t" : 0,
      "has_biases" : 1,
      "C" : 32,
      "bottom" : "block3_conv_a",
      "weights" : {

      },
      "Nx" : 1,
      "pad_mode" : 0,
      "pad_value" : 0,
      "Ny" : 1,
      "n_parallel" : 1
    },
    {
      "bottom" : "block2_eltsum,block3_conv_b",
      "alpha" : 1,
      "operation" : 0,
      "weights" : {

      },
      "fused_relu" : 0,
      "debug_info" : "block3_eltsum",
      "top" : "block3_eltsum_19block3_relu_after_sum",
      "type" : "elementwise",
      "name" : "block3_eltsum",
      "beta" : 0
    },
    {
      "bottom" : "block3_eltsum_19block3_relu_after_sum",
      "weights" : {

      },
      "mode" : 0,
      "debug_info" : "block3_relu_after_sum",
      "top" : "block3_eltsum",
      "type" : "activation",
      "name" : "block3_relu_after_sum"
    },
    {
      "pad_r" : 1,
      "fused_relu" : 1,
      "fused_tanh" : 0,
      "debug_info" : "block4_conv_a",
      "pad_fill_mode" : 0,
      "pad_b" : 1,
      "pad_l" : 1,
      "top" : "block4_conv_a",
      "blob_weights" : 39,
      "K" : 32,
      "blob_biases" : 37,
      "name" : "block4_conv_a",
      "has_batch_norm" : 0,
      "type" : "convolution",
      "n_groups" : 32,
      "pad_t" : 1,
      "has_biases" : 1,
      "C" : 32,
      "bottom" : "block3_eltsum",
      "weights" : {

      },
      "Nx" : 3,
      "pad_mode" : 0,
      "pad_value" : 0,
      "Ny" : 3,
      "n_parallel" : 1
    },
    {
      "pad_r" : 0,
      "fused_relu" : 0,
      "fused_tanh" : 0,
      "debug_info" : "block4_conv_b",
      "pad_fill_mode" : 0,
      "pad_b" : 0,
      "pad_l" : 0,
      "top" : "block4_conv_b",
      "blob_weights" : 43,
      "K" : 32,
      "blob_biases" : 41,
      "name" : "block4_conv_b",
      "has_batch_norm" : 0,
      "type" : "convolution",
      "n_groups" : 1,
      "pad_t" : 0,
      "has_biases" : 1,
      "C" : 32,
      "bottom" : "block4_conv_a",
      "weights" : {

      },
      "Nx" : 1,
      "pad_mode" : 0,
      "pad_value" : 0,
      "Ny" : 1,
      "n_parallel" : 1
    },
    {
      "bottom" : "block3_eltsum,block4_conv_b",
      "alpha" : 1,
      "operation" : 0,
      "weights" : {

      },
      "fused_relu" : 0,
      "debug_info" : "block4_eltsum",
      "top" : "block4_eltsum_24block4_relu_after_sum",
      "type" : "elementwise",
      "name" : "block4_eltsum",
      "beta" : 0
    },
    {
      "bottom" : "block4_eltsum_24block4_relu_after_sum",
      "weights" : {

      },
      "mode" : 0,
      "debug_info" : "block4_relu_after_sum",
      "top" : "block4_eltsum",
      "type" : "activation",
      "name" : "block4_relu_after_sum"
    },
    {
      "pad_r" : 1,
      "fused_relu" : 1,
      "fused_tanh" : 0,
      "debug_info" : "block5_conv_a",
      "pad_fill_mode" : 0,
      "pad_b" : 1,
      "pad_l" : 1,
      "top" : "block5_conv_a",
      "blob_weights" : 47,
      "K" : 32,
      "blob_biases" : 45,
      "name" : "block5_conv_a",
      "has_batch_norm" : 0,
      "type" : "convolution",
      "n_groups" : 32,
      "pad_t" : 1,
      "has_biases" : 1,
      "C" : 32,
      "bottom" : "block4_eltsum",
      "weights" : {

      },
      "Nx" : 3,
      "pad_mode" : 0,
      "pad_value" : 0,
      "Ny" : 3,
      "n_parallel" : 1
    },
    {
      "pad_r" : 0,
      "fused_relu" : 0,
      "fused_tanh" : 0,
      "debug_info" : "block5_conv_b",
      "pad_fill_mode" : 0,
      "pad_b" : 0,
      "pad_l" : 0,
      "top" : "block5_conv_b",
      "blob_weights" : 51,
      "K" : 32,
      "blob_biases" : 49,
      "name" : "block5_conv_b",
      "has_batch_norm" : 0,
      "type" : "convolution",
      "n_groups" : 1,
      "pad_t" : 0,
      "has_biases" : 1,
      "C" : 32,
      "bottom" : "block5_conv_a",
      "weights" : {

      },
      "Nx" : 1,
      "pad_mode" : 0,
      "pad_value" : 0,
      "Ny" : 1,
      "n_parallel" : 1
    },
    {
      "bottom" : "block4_eltsum,block5_conv_b",
      "alpha" : 1,
      "operation" : 0,
      "weights" : {

      },
      "fused_relu" : 0,
      "debug_info" : "block5_eltsum",
      "top" : "block5_eltsum_29block5_relu_after_sum",
      "type" : "elementwise",
      "name" : "block5_eltsum",
      "beta" : 0
    },
    {
      "bottom" : "block5_eltsum_29block5_relu_after_sum",
      "weights" : {

      },
      "mode" : 0,
      "debug_info" : "block5_relu_after_sum",
      "top" : "block5_eltsum",
      "type" : "activation",
      "name" : "block5_relu_after_sum"
    },
    {
      "pad_r" : 0,
      "fused_relu" : 0,
      "fused_tanh" : 0,
      "debug_info" : "block6_conv_proj",
      "pad_fill_mode" : 0,
      "pad_b" : 0,
      "pad_l" : 0,
      "top" : "block6_conv_proj",
      "blob_weights" : 55,
      "K" : 32,
      "blob_biases" : 53,
      "stride_x" : 2,
      "name" : "block6_conv_proj",
      "has_batch_norm" : 0,
      "type" : "convolution",
      "n_groups" : 1,
      "pad_t" : 0,
      "stride_y" : 2,
      "has_biases" : 1,
      "C" : 64,
      "bottom" : "block5_eltsum",
      "weights" : {

      },
      "Nx" : 1,
      "pad_mode" : 0,
      "pad_value" : 0,
      "Ny" : 1,
      "n_parallel" : 1
    },
    {
      "pad_r" : 1,
      "fused_relu" : 1,
      "fused_tanh" : 0,
      "debug_info" : "block6_conv_a",
      "pad_fill_mode" : 0,
      "pad_b" : 1,
      "pad_l" : 1,
      "top" : "block6_conv_a",
      "blob_weights" : 59,
      "K" : 32,
      "blob_biases" : 57,
      "stride_x" : 2,
      "name" : "block6_conv_a",
      "has_batch_norm" : 0,
      "type" : "convolution",
      "n_groups" : 32,
      "pad_t" : 1,
      "stride_y" : 2,
      "has_biases" : 1,
      "C" : 32,
      "bottom" : "block5_eltsum",
      "weights" : {

      },
      "Nx" : 3,
      "pad_mode" : 0,
      "pad_value" : 0,
      "Ny" : 3,
      "n_parallel" : 1
    },
    {
      "pad_r" : 0,
      "fused_relu" : 0,
      "fused_tanh" : 0,
      "debug_info" : "block6_conv_b",
      "pad_fill_mode" : 0,
      "pad_b" : 0,
      "pad_l" : 0,
      "top" : "block6_conv_b",
      "blob_weights" : 63,
      "K" : 32,
      "blob_biases" : 61,
      "name" : "block6_conv_b",
      "has_batch_norm" : 0,
      "type" : "convolution",
      "n_groups" : 1,
      "pad_t" : 0,
      "has_biases" : 1,
      "C" : 64,
      "bottom" : "block6_conv_a",
      "weights" : {

      },
      "Nx" : 1,
      "pad_mode" : 0,
      "pad_value" : 0,
      "Ny" : 1,
      "n_parallel" : 1
    },
    {
      "bottom" : "block6_conv_proj,block6_conv_b",
      "alpha" : 1,
      "operation" : 0,
      "weights" : {

      },
      "fused_relu" : 0,
      "debug_info" : "block6_eltsum",
      "top" : "block6_eltsum_35block6_relu_after_sum",
      "type" : "elementwise",
      "name" : "block6_eltsum",
      "beta" : 0
    },
    {
      "bottom" : "block6_eltsum_35block6_relu_after_sum",
      "weights" : {

      },
      "mode" : 0,
      "debug_info" : "block6_relu_after_sum",
      "top" : "block6_eltsum",
      "type" : "activation",
      "name" : "block6_relu_after_sum"
    },
    {
      "pad_r" : 1,
      "fused_relu" : 1,
      "fused_tanh" : 0,
      "debug_info" : "block7_conv_a",
      "pad_fill_mode" : 0,
      "pad_b" : 1,
      "pad_l" : 1,
      "top" : "block7_conv_a",
      "blob_weights" : 67,
      "K" : 64,
      "blob_biases" : 65,
      "name" : "block7_conv_a",
      "has_batch_norm" : 0,
      "type" : "convolution",
      "n_groups" : 64,
      "pad_t" : 1,
      "has_biases" : 1,
      "C" : 64,
      "bottom" : "block6_eltsum",
      "weights" : {

      },
      "Nx" : 3,
      "pad_mode" : 0,
      "pad_value" : 0,
      "Ny" : 3,
      "n_parallel" : 1
    },
    {
      "pad_r" : 0,
      "fused_relu" : 0,
      "fused_tanh" : 0,
      "debug_info" : "block7_conv_b",
      "pad_fill_mode" : 0,
      "pad_b" : 0,
      "pad_l" : 0,
      "top" : "block7_conv_b",
      "blob_weights" : 71,
      "K" : 64,
      "blob_biases" : 69,
      "name" : "block7_conv_b",
      "has_batch_norm" : 0,
      "type" : "convolution",
      "n_groups" : 1,
      "pad_t" : 0,
      "has_biases" : 1,
      "C" : 64,
      "bottom" : "block7_conv_a",
      "weights" : {

      },
      "Nx" : 1,
      "pad_mode" : 0,
      "pad_value" : 0,
      "Ny" : 1,
      "n_parallel" : 1
    },
    {
      "bottom" : "block6_eltsum,block7_conv_b",
      "alpha" : 1,
      "operation" : 0,
      "weights" : {

      },
      "fused_relu" : 0,
      "debug_info" : "block7_eltsum",
      "top" : "block7_eltsum_40block7_relu_after_sum",
      "type" : "elementwise",
      "name" : "block7_eltsum",
      "beta" : 0
    },
    {
      "bottom" : "block7_eltsum_40block7_relu_after_sum",
      "weights" : {

      },
      "mode" : 0,
      "debug_info" : "block7_relu_after_sum",
      "top" : "block7_eltsum",
      "type" : "activation",
      "name" : "block7_relu_after_sum"
    },
    {
      "pad_r" : 1,
      "fused_relu" : 1,
      "fused_tanh" : 0,
      "debug_info" : "block8_conv_a",
      "pad_fill_mode" : 0,
      "pad_b" : 1,
      "pad_l" : 1,
      "top" : "block8_conv_a",
      "blob_weights" : 75,
      "K" : 64,
      "blob_biases" : 73,
      "name" : "block8_conv_a",
      "has_batch_norm" : 0,
      "type" : "convolution",
      "n_groups" : 64,
      "pad_t" : 1,
      "has_biases" : 1,
      "C" : 64,
      "bottom" : "block7_eltsum",
      "weights" : {

      },
      "Nx" : 3,
      "pad_mode" : 0,
      "pad_value" : 0,
      "Ny" : 3,
      "n_parallel" : 1
    },
    {
      "pad_r" : 0,
      "fused_relu" : 0,
      "fused_tanh" : 0,
      "debug_info" : "block8_conv_b",
      "pad_fill_mode" : 0,
      "pad_b" : 0,
      "pad_l" : 0,
      "top" : "block8_conv_b",
      "blob_weights" : 79,
      "K" : 64,
      "blob_biases" : 77,
      "name" : "block8_conv_b",
      "has_batch_norm" : 0,
      "type" : "convolution",
      "n_groups" : 1,
      "pad_t" : 0,
      "has_biases" : 1,
      "C" : 64,
      "bottom" : "block8_conv_a",
      "weights" : {

      },
      "Nx" : 1,
      "pad_mode" : 0,
      "pad_value" : 0,
      "Ny" : 1,
      "n_parallel" : 1
    },
    {
      "bottom" : "block7_eltsum,block8_conv_b",
      "alpha" : 1,
      "operation" : 0,
      "weights" : {

      },
      "fused_relu" : 0,
      "debug_info" : "block8_eltsum",
      "top" : "block8_eltsum_45block8_relu_after_sum",
      "type" : "elementwise",
      "name" : "block8_eltsum",
      "beta" : 0
    },
    {
      "bottom" : "block8_eltsum_45block8_relu_after_sum",
      "weights" : {

      },
      "mode" : 0,
      "debug_info" : "block8_relu_after_sum",
      "top" : "block8_eltsum",
      "type" : "activation",
      "name" : "block8_relu_after_sum"
    },
    {
      "pad_r" : 1,
      "fused_relu" : 1,
      "fused_tanh" : 0,
      "debug_info" : "block9_conv_a",
      "pad_fill_mode" : 0,
      "pad_b" : 1,
      "pad_l" : 1,
      "top" : "block9_conv_a",
      "blob_weights" : 83,
      "K" : 64,
      "blob_biases" : 81,
      "name" : "block9_conv_a",
      "has_batch_norm" : 0,
      "type" : "convolution",
      "n_groups" : 64,
      "pad_t" : 1,
      "has_biases" : 1,
      "C" : 64,
      "bottom" : "block8_eltsum",
      "weights" : {

      },
      "Nx" : 3,
      "pad_mode" : 0,
      "pad_value" : 0,
      "Ny" : 3,
      "n_parallel" : 1
    },
    {
      "pad_r" : 0,
      "fused_relu" : 0,
      "fused_tanh" : 0,
      "debug_info" : "block9_conv_b",
      "pad_fill_mode" : 0,
      "pad_b" : 0,
      "pad_l" : 0,
      "top" : "block9_conv_b",
      "blob_weights" : 87,
      "K" : 64,
      "blob_biases" : 85,
      "name" : "block9_conv_b",
      "has_batch_norm" : 0,
      "type" : "convolution",
      "n_groups" : 1,
      "pad_t" : 0,
      "has_biases" : 1,
      "C" : 64,
      "bottom" : "block9_conv_a",
      "weights" : {

      },
      "Nx" : 1,
      "pad_mode" : 0,
      "pad_value" : 0,
      "Ny" : 1,
      "n_parallel" : 1
    },
    {
      "bottom" : "block8_eltsum,block9_conv_b",
      "alpha" : 1,
      "operation" : 0,
      "weights" : {

      },
      "fused_relu" : 0,
      "debug_info" : "block9_eltsum",
      "top" : "block9_eltsum_50block9_relu_after_sum",
      "type" : "elementwise",
      "name" : "block9_eltsum",
      "beta" : 0
    },
    {
      "bottom" : "block9_eltsum_50block9_relu_after_sum",
      "weights" : {

      },
      "mode" : 0,
      "debug_info" : "block9_relu_after_sum",
      "top" : "block9_eltsum",
      "type" : "activation",
      "name" : "block9_relu_after_sum"
    },
    {
      "pad_r" : 1,
      "fused_relu" : 1,
      "fused_tanh" : 0,
      "debug_info" : "block10_conv_a",
      "pad_fill_mode" : 0,
      "pad_b" : 1,
      "pad_l" : 1,
      "top" : "block10_conv_a",
      "blob_weights" : 91,
      "K" : 64,
      "blob_biases" : 89,
      "name" : "block10_conv_a",
      "has_batch_norm" : 0,
      "type" : "convolution",
      "n_groups" : 64,
      "pad_t" : 1,
      "has_biases" : 1,
      "C" : 64,
      "bottom" : "block9_eltsum",
      "weights" : {

      },
      "Nx" : 3,
      "pad_mode" : 0,
      "pad_value" : 0,
      "Ny" : 3,
      "n_parallel" : 1
    },
    {
      "pad_r" : 0,
      "fused_relu" : 0,
      "fused_tanh" : 0,
      "debug_info" : "block10_conv_b",
      "pad_fill_mode" : 0,
      "pad_b" : 0,
      "pad_l" : 0,
      "top" : "block10_conv_b",
      "blob_weights" : 95,
      "K" : 64,
      "blob_biases" : 93,
      "name" : "block10_conv_b",
      "has_batch_norm" : 0,
      "type" : "convolution",
      "n_groups" : 1,
      "pad_t" : 0,
      "has_biases" : 1,
      "C" : 64,
      "bottom" : "block10_conv_a",
      "weights" : {

      },
      "Nx" : 1,
      "pad_mode" : 0,
      "pad_value" : 0,
      "Ny" : 1,
      "n_parallel" : 1
    },
    {
      "bottom" : "block9_eltsum,block10_conv_b",
      "alpha" : 1,
      "operation" : 0,
      "weights" : {

      },
      "fused_relu" : 0,
      "debug_info" : "block10_eltsum",
      "top" : "block10_eltsum_55block10_relu_after_sum",
      "type" : "elementwise",
      "name" : "block10_eltsum",
      "beta" : 0
    },
    {
      "bottom" : "block10_eltsum_55block10_relu_after_sum",
      "weights" : {

      },
      "mode" : 0,
      "debug_info" : "block10_relu_after_sum",
      "top" : "block10_eltsum",
      "type" : "activation",
      "name" : "block10_relu_after_sum"
    },
    {
      "pad_r" : 1,
      "fused_relu" : 1,
      "fused_tanh" : 0,
      "debug_info" : "block11_conv_a",
      "pad_fill_mode" : 0,
      "pad_b" : 1,
      "pad_l" : 1,
      "top" : "block11_conv_a",
      "blob_weights" : 99,
      "K" : 64,
      "blob_biases" : 97,
      "name" : "block11_conv_a",
      "has_batch_norm" : 0,
      "type" : "convolution",
      "n_groups" : 64,
      "pad_t" : 1,
      "has_biases" : 1,
      "C" : 64,
      "bottom" : "block10_eltsum",
      "weights" : {

      },
      "Nx" : 3,
      "pad_mode" : 0,
      "pad_value" : 0,
      "Ny" : 3,
      "n_parallel" : 1
    },
    {
      "pad_r" : 0,
      "fused_relu" : 0,
      "fused_tanh" : 0,
      "debug_info" : "block11_conv_b",
      "pad_fill_mode" : 0,
      "pad_b" : 0,
      "pad_l" : 0,
      "top" : "block11_conv_b",
      "blob_weights" : 103,
      "K" : 64,
      "blob_biases" : 101,
      "name" : "block11_conv_b",
      "has_batch_norm" : 0,
      "type" : "convolution",
      "n_groups" : 1,
      "pad_t" : 0,
      "has_biases" : 1,
      "C" : 64,
      "bottom" : "block11_conv_a",
      "weights" : {

      },
      "Nx" : 1,
      "pad_mode" : 0,
      "pad_value" : 0,
      "Ny" : 1,
      "n_parallel" : 1
    },
    {
      "bottom" : "block10_eltsum,block11_conv_b",
      "alpha" : 1,
      "operation" : 0,
      "weights" : {

      },
      "fused_relu" : 0,
      "debug_info" : "block11_eltsum",
      "top" : "block11_eltsum_60block11_relu_after_sum",
      "type" : "elementwise",
      "name" : "block11_eltsum",
      "beta" : 0
    },
    {
      "bottom" : "block11_eltsum_60block11_relu_after_sum",
      "weights" : {

      },
      "mode" : 0,
      "debug_info" : "block11_relu_after_sum",
      "top" : "block11_eltsum",
      "type" : "activation",
      "name" : "block11_relu_after_sum"
    },
    {
      "pad_r" : 1,
      "fused_relu" : 1,
      "fused_tanh" : 0,
      "debug_info" : "block12_conv_a",
      "pad_fill_mode" : 0,
      "pad_b" : 1,
      "pad_l" : 1,
      "top" : "block12_conv_a",
      "blob_weights" : 107,
      "K" : 64,
      "blob_biases" : 105,
      "name" : "block12_conv_a",
      "has_batch_norm" : 0,
      "type" : "convolution",
      "n_groups" : 64,
      "pad_t" : 1,
      "has_biases" : 1,
      "C" : 64,
      "bottom" : "block11_eltsum",
      "weights" : {

      },
      "Nx" : 3,
      "pad_mode" : 0,
      "pad_value" : 0,
      "Ny" : 3,
      "n_parallel" : 1
    },
    {
      "pad_r" : 0,
      "fused_relu" : 0,
      "fused_tanh" : 0,
      "debug_info" : "block12_conv_b",
      "pad_fill_mode" : 0,
      "pad_b" : 0,
      "pad_l" : 0,
      "top" : "block12_conv_b",
      "blob_weights" : 111,
      "K" : 64,
      "blob_biases" : 109,
      "name" : "block12_conv_b",
      "has_batch_norm" : 0,
      "type" : "convolution",
      "n_groups" : 1,
      "pad_t" : 0,
      "has_biases" : 1,
      "C" : 64,
      "bottom" : "block12_conv_a",
      "weights" : {

      },
      "Nx" : 1,
      "pad_mode" : 0,
      "pad_value" : 0,
      "Ny" : 1,
      "n_parallel" : 1
    },
    {
      "bottom" : "block11_eltsum,block12_conv_b",
      "alpha" : 1,
      "operation" : 0,
      "weights" : {

      },
      "fused_relu" : 0,
      "debug_info" : "block12_eltsum",
      "top" : "block12_eltsum_65block12_relu_after_sum",
      "type" : "elementwise",
      "name" : "block12_eltsum",
      "beta" : 0
    },
    {
      "bottom" : "block12_eltsum_65block12_relu_after_sum",
      "weights" : {

      },
      "mode" : 0,
      "debug_info" : "block12_relu_after_sum",
      "top" : "block12_eltsum",
      "type" : "activation",
      "name" : "block12_relu_after_sum"
    },
    {
      "pad_r" : 1,
      "fused_relu" : 1,
      "fused_tanh" : 0,
      "debug_info" : "block13_conv_a",
      "pad_fill_mode" : 0,
      "pad_b" : 1,
      "pad_l" : 1,
      "top" : "block13_conv_a",
      "blob_weights" : 115,
      "K" : 64,
      "blob_biases" : 113,
      "name" : "block13_conv_a",
      "has_batch_norm" : 0,
      "type" : "convolution",
      "n_groups" : 64,
      "pad_t" : 1,
      "has_biases" : 1,
      "C" : 64,
      "bottom" : "block12_eltsum",
      "weights" : {

      },
      "Nx" : 3,
      "pad_mode" : 0,
      "pad_value" : 0,
      "Ny" : 3,
      "n_parallel" : 1
    },
    {
      "pad_r" : 0,
      "fused_relu" : 0,
      "fused_tanh" : 0,
      "debug_info" : "block13_conv_b",
      "pad_fill_mode" : 0,
      "pad_b" : 0,
      "pad_l" : 0,
      "top" : "block13_conv_b",
      "blob_weights" : 119,
      "K" : 64,
      "blob_biases" : 117,
      "name" : "block13_conv_b",
      "has_batch_norm" : 0,
      "type" : "convolution",
      "n_groups" : 1,
      "pad_t" : 0,
      "has_biases" : 1,
      "C" : 64,
      "bottom" : "block13_conv_a",
      "weights" : {

      },
      "Nx" : 1,
      "pad_mode" : 0,
      "pad_value" : 0,
      "Ny" : 1,
      "n_parallel" : 1
    },
    {
      "bottom" : "block12_eltsum,block13_conv_b",
      "alpha" : 1,
      "operation" : 0,
      "weights" : {

      },
      "fused_relu" : 0,
      "debug_info" : "block13_eltsum",
      "top" : "block13_eltsum_70block13_relu_after_sum",
      "type" : "elementwise",
      "name" : "block13_eltsum",
      "beta" : 0
    },
    {
      "bottom" : "block13_eltsum_70block13_relu_after_sum",
      "weights" : {

      },
      "mode" : 0,
      "debug_info" : "block13_relu_after_sum",
      "top" : "block13_eltsum",
      "type" : "activation",
      "name" : "block13_relu_after_sum"
    },
    {
      "pad_r" : 1,
      "fused_relu" : 1,
      "fused_tanh" : 0,
      "debug_info" : "block14_conv_a",
      "pad_fill_mode" : 0,
      "pad_b" : 1,
      "pad_l" : 1,
      "top" : "block14_conv_a",
      "blob_weights" : 123,
      "K" : 64,
      "blob_biases" : 121,
      "name" : "block14_conv_a",
      "has_batch_norm" : 0,
      "type" : "convolution",
      "n_groups" : 64,
      "pad_t" : 1,
      "has_biases" : 1,
      "C" : 64,
      "bottom" : "block13_eltsum",
      "weights" : {

      },
      "Nx" : 3,
      "pad_mode" : 0,
      "pad_value" : 0,
      "Ny" : 3,
      "n_parallel" : 1
    },
    {
      "pad_r" : 0,
      "fused_relu" : 0,
      "fused_tanh" : 0,
      "debug_info" : "block14_conv_b",
      "pad_fill_mode" : 0,
      "pad_b" : 0,
      "pad_l" : 0,
      "top" : "block14_conv_b",
      "blob_weights" : 127,
      "K" : 64,
      "blob_biases" : 125,
      "name" : "block14_conv_b",
      "has_batch_norm" : 0,
      "type" : "convolution",
      "n_groups" : 1,
      "pad_t" : 0,
      "has_biases" : 1,
      "C" : 64,
      "bottom" : "block14_conv_a",
      "weights" : {

      },
      "Nx" : 1,
      "pad_mode" : 0,
      "pad_value" : 0,
      "Ny" : 1,
      "n_parallel" : 1
    },
    {
      "bottom" : "block13_eltsum,block14_conv_b",
      "alpha" : 1,
      "operation" : 0,
      "weights" : {

      },
      "fused_relu" : 0,
      "debug_info" : "block14_eltsum",
      "top" : "block14_eltsum_75block14_relu_after_sum",
      "type" : "elementwise",
      "name" : "block14_eltsum",
      "beta" : 0
    },
    {
      "bottom" : "block14_eltsum_75block14_relu_after_sum",
      "weights" : {

      },
      "mode" : 0,
      "debug_info" : "block14_relu_after_sum",
      "top" : "block14_eltsum",
      "type" : "activation",
      "name" : "block14_relu_after_sum"
    },
    {
      "pad_r" : 1,
      "fused_relu" : 1,
      "fused_tanh" : 0,
      "debug_info" : "block15_conv_a",
      "pad_fill_mode" : 0,
      "pad_b" : 1,
      "pad_l" : 1,
      "top" : "block15_conv_a",
      "blob_weights" : 131,
      "K" : 64,
      "blob_biases" : 129,
      "name" : "block15_conv_a",
      "has_batch_norm" : 0,
      "type" : "convolution",
      "n_groups" : 64,
      "pad_t" : 1,
      "has_biases" : 1,
      "C" : 64,
      "bottom" : "block14_eltsum",
      "weights" : {

      },
      "Nx" : 3,
      "pad_mode" : 0,
      "pad_value" : 0,
      "Ny" : 3,
      "n_parallel" : 1
    },
    {
      "pad_r" : 0,
      "fused_relu" : 0,
      "fused_tanh" : 0,
      "debug_info" : "block15_conv_b",
      "pad_fill_mode" : 0,
      "pad_b" : 0,
      "pad_l" : 0,
      "top" : "block15_conv_b",
      "blob_weights" : 135,
      "K" : 64,
      "blob_biases" : 133,
      "name" : "block15_conv_b",
      "has_batch_norm" : 0,
      "type" : "convolution",
      "n_groups" : 1,
      "pad_t" : 0,
      "has_biases" : 1,
      "C" : 64,
      "bottom" : "block15_conv_a",
      "weights" : {

      },
      "Nx" : 1,
      "pad_mode" : 0,
      "pad_value" : 0,
      "Ny" : 1,
      "n_parallel" : 1
    },
    {
      "bottom" : "block14_eltsum,block15_conv_b",
      "alpha" : 1,
      "operation" : 0,
      "weights" : {

      },
      "fused_relu" : 0,
      "debug_info" : "block15_eltsum",
      "top" : "block15_eltsum_80block15_relu_after_sum",
      "type" : "elementwise",
      "name" : "block15_eltsum",
      "beta" : 0
    },
    {
      "bottom" : "block15_eltsum_80block15_relu_after_sum",
      "weights" : {

      },
      "mode" : 0,
      "debug_info" : "block15_relu_after_sum",
      "top" : "block15_eltsum",
      "type" : "activation",
      "name" : "block15_relu_after_sum"
    },
    {
      "pad_r" : 1,
      "fused_relu" : 1,
      "fused_tanh" : 0,
      "debug_info" : "block16_conv_a",
      "pad_fill_mode" : 0,
      "pad_b" : 1,
      "pad_l" : 1,
      "top" : "block16_conv_a",
      "blob_weights" : 139,
      "K" : 64,
      "blob_biases" : 137,
      "name" : "block16_conv_a",
      "has_batch_norm" : 0,
      "type" : "convolution",
      "n_groups" : 64,
      "pad_t" : 1,
      "has_biases" : 1,
      "C" : 64,
      "bottom" : "block15_eltsum",
      "weights" : {

      },
      "Nx" : 3,
      "pad_mode" : 0,
      "pad_value" : 0,
      "Ny" : 3,
      "n_parallel" : 1
    },
    {
      "pad_r" : 0,
      "fused_relu" : 0,
      "fused_tanh" : 0,
      "debug_info" : "block16_conv_b",
      "pad_fill_mode" : 0,
      "pad_b" : 0,
      "pad_l" : 0,
      "top" : "block16_conv_b",
      "blob_weights" : 143,
      "K" : 64,
      "blob_biases" : 141,
      "name" : "block16_conv_b",
      "has_batch_norm" : 0,
      "type" : "convolution",
      "n_groups" : 1,
      "pad_t" : 0,
      "has_biases" : 1,
      "C" : 64,
      "bottom" : "block16_conv_a",
      "weights" : {

      },
      "Nx" : 1,
      "pad_mode" : 0,
      "pad_value" : 0,
      "Ny" : 1,
      "n_parallel" : 1
    },
    {
      "bottom" : "block15_eltsum,block16_conv_b",
      "alpha" : 1,
      "operation" : 0,
      "weights" : {

      },
      "fused_relu" : 0,
      "debug_info" : "block16_eltsum",
      "top" : "block16_eltsum_85block16_relu_after_sum",
      "type" : "elementwise",
      "name" : "block16_eltsum",
      "beta" : 0
    },
    {
      "bottom" : "block16_eltsum_85block16_relu_after_sum",
      "weights" : {

      },
      "mode" : 0,
      "debug_info" : "block16_relu_after_sum",
      "top" : "block16_eltsum",
      "type" : "activation",
      "name" : "block16_relu_after_sum"
    },
    {
      "pad_r" : 1,
      "fused_relu" : 1,
      "fused_tanh" : 0,
      "debug_info" : "block17_conv_a",
      "pad_fill_mode" : 0,
      "pad_b" : 1,
      "pad_l" : 1,
      "top" : "block17_conv_a",
      "blob_weights" : 147,
      "K" : 64,
      "blob_biases" : 145,
      "name" : "block17_conv_a",
      "has_batch_norm" : 0,
      "type" : "convolution",
      "n_groups" : 64,
      "pad_t" : 1,
      "has_biases" : 1,
      "C" : 64,
      "bottom" : "block16_eltsum",
      "weights" : {

      },
      "Nx" : 3,
      "pad_mode" : 0,
      "pad_value" : 0,
      "Ny" : 3,
      "n_parallel" : 1
    },
    {
      "pad_r" : 0,
      "fused_relu" : 0,
      "fused_tanh" : 0,
      "debug_info" : "block17_conv_b",
      "pad_fill_mode" : 0,
      "pad_b" : 0,
      "pad_l" : 0,
      "top" : "block17_conv_b",
      "blob_weights" : 151,
      "K" : 64,
      "blob_biases" : 149,
      "name" : "block17_conv_b",
      "has_batch_norm" : 0,
      "type" : "convolution",
      "n_groups" : 1,
      "pad_t" : 0,
      "has_biases" : 1,
      "C" : 64,
      "bottom" : "block17_conv_a",
      "weights" : {

      },
      "Nx" : 1,
      "pad_mode" : 0,
      "pad_value" : 0,
      "Ny" : 1,
      "n_parallel" : 1
    },
    {
      "bottom" : "block16_eltsum,block17_conv_b",
      "alpha" : 1,
      "operation" : 0,
      "weights" : {

      },
      "fused_relu" : 0,
      "debug_info" : "block17_eltsum",
      "top" : "block17_eltsum_90block17_relu_after_sum",
      "type" : "elementwise",
      "name" : "block17_eltsum",
      "beta" : 0
    },
    {
      "bottom" : "block17_eltsum_90block17_relu_after_sum",
      "weights" : {

      },
      "mode" : 0,
      "debug_info" : "block17_relu_after_sum",
      "top" : "block17_eltsum",
      "type" : "activation",
      "name" : "block17_relu_after_sum"
    },
    {
      "pad_r" : 1,
      "fused_relu" : 1,
      "fused_tanh" : 0,
      "debug_info" : "block18_conv_a",
      "pad_fill_mode" : 0,
      "pad_b" : 1,
      "pad_l" : 1,
      "top" : "block18_conv_a",
      "blob_weights" : 155,
      "K" : 64,
      "blob_biases" : 153,
      "name" : "block18_conv_a",
      "has_batch_norm" : 0,
      "type" : "convolution",
      "n_groups" : 64,
      "pad_t" : 1,
      "has_biases" : 1,
      "C" : 64,
      "bottom" : "block17_eltsum",
      "weights" : {

      },
      "Nx" : 3,
      "pad_mode" : 0,
      "pad_value" : 0,
      "Ny" : 3,
      "n_parallel" : 1
    },
    {
      "pad_r" : 0,
      "fused_relu" : 0,
      "fused_tanh" : 0,
      "debug_info" : "block18_conv_b",
      "pad_fill_mode" : 0,
      "pad_b" : 0,
      "pad_l" : 0,
      "top" : "block18_conv_b",
      "blob_weights" : 159,
      "K" : 64,
      "blob_biases" : 157,
      "name" : "block18_conv_b",
      "has_batch_norm" : 0,
      "type" : "convolution",
      "n_groups" : 1,
      "pad_t" : 0,
      "has_biases" : 1,
      "C" : 64,
      "bottom" : "block18_conv_a",
      "weights" : {

      },
      "Nx" : 1,
      "pad_mode" : 0,
      "pad_value" : 0,
      "Ny" : 1,
      "n_parallel" : 1
    },
    {
      "bottom" : "block17_eltsum,block18_conv_b",
      "alpha" : 1,
      "operation" : 0,
      "weights" : {

      },
      "fused_relu" : 0,
      "debug_info" : "block18_eltsum",
      "top" : "block18_eltsum_95block18_relu_after_sum",
      "type" : "elementwise",
      "name" : "block18_eltsum",
      "beta" : 0
    },
    {
      "bottom" : "block18_eltsum_95block18_relu_after_sum",
      "weights" : {

      },
      "mode" : 0,
      "debug_info" : "block18_relu_after_sum",
      "top" : "block18_eltsum",
      "type" : "activation",
      "name" : "block18_relu_after_sum"
    },
    {
      "pad_r" : 1,
      "fused_relu" : 1,
      "fused_tanh" : 0,
      "debug_info" : "block19_conv_a",
      "pad_fill_mode" : 0,
      "pad_b" : 1,
      "pad_l" : 1,
      "top" : "block19_conv_a",
      "blob_weights" : 163,
      "K" : 64,
      "blob_biases" : 161,
      "name" : "block19_conv_a",
      "has_batch_norm" : 0,
      "type" : "convolution",
      "n_groups" : 64,
      "pad_t" : 1,
      "has_biases" : 1,
      "C" : 64,
      "bottom" : "block18_eltsum",
      "weights" : {

      },
      "Nx" : 3,
      "pad_mode" : 0,
      "pad_value" : 0,
      "Ny" : 3,
      "n_parallel" : 1
    },
    {
      "pad_r" : 0,
      "fused_relu" : 0,
      "fused_tanh" : 0,
      "debug_info" : "block19_conv_b",
      "pad_fill_mode" : 0,
      "pad_b" : 0,
      "pad_l" : 0,
      "top" : "block19_conv_b",
      "blob_weights" : 167,
      "K" : 64,
      "blob_biases" : 165,
      "name" : "block19_conv_b",
      "has_batch_norm" : 0,
      "type" : "convolution",
      "n_groups" : 1,
      "pad_t" : 0,
      "has_biases" : 1,
      "C" : 64,
      "bottom" : "block19_conv_a",
      "weights" : {

      },
      "Nx" : 1,
      "pad_mode" : 0,
      "pad_value" : 0,
      "Ny" : 1,
      "n_parallel" : 1
    },
    {
      "bottom" : "block18_eltsum,block19_conv_b",
      "alpha" : 1,
      "operation" : 0,
      "weights" : {

      },
      "fused_relu" : 0,
      "debug_info" : "block19_eltsum",
      "top" : "block19_eltsum_100block19_relu_after_sum",
      "type" : "elementwise",
      "name" : "block19_eltsum",
      "beta" : 0
    },
    {
      "bottom" : "block19_eltsum_100block19_relu_after_sum",
      "weights" : {

      },
      "mode" : 0,
      "debug_info" : "block19_relu_after_sum",
      "top" : "block19_eltsum",
      "type" : "activation",
      "name" : "block19_relu_after_sum"
    },
    {
      "pad_r" : 1,
      "fused_relu" : 1,
      "fused_tanh" : 0,
      "debug_info" : "block20_conv_a",
      "pad_fill_mode" : 0,
      "pad_b" : 1,
      "pad_l" : 1,
      "top" : "block20_conv_a",
      "blob_weights" : 171,
      "K" : 64,
      "blob_biases" : 169,
      "name" : "block20_conv_a",
      "has_batch_norm" : 0,
      "type" : "convolution",
      "n_groups" : 64,
      "pad_t" : 1,
      "has_biases" : 1,
      "C" : 64,
      "bottom" : "block19_eltsum",
      "weights" : {

      },
      "Nx" : 3,
      "pad_mode" : 0,
      "pad_value" : 0,
      "Ny" : 3,
      "n_parallel" : 1
    },
    {
      "pad_r" : 0,
      "fused_relu" : 0,
      "fused_tanh" : 0,
      "debug_info" : "block20_conv_b",
      "pad_fill_mode" : 0,
      "pad_b" : 0,
      "pad_l" : 0,
      "top" : "block20_conv_b",
      "blob_weights" : 175,
      "K" : 64,
      "blob_biases" : 173,
      "name" : "block20_conv_b",
      "has_batch_norm" : 0,
      "type" : "convolution",
      "n_groups" : 1,
      "pad_t" : 0,
      "has_biases" : 1,
      "C" : 64,
      "bottom" : "block20_conv_a",
      "weights" : {

      },
      "Nx" : 1,
      "pad_mode" : 0,
      "pad_value" : 0,
      "Ny" : 1,
      "n_parallel" : 1
    },
    {
      "bottom" : "block19_eltsum,block20_conv_b",
      "alpha" : 1,
      "operation" : 0,
      "weights" : {

      },
      "fused_relu" : 0,
      "debug_info" : "block20_eltsum",
      "top" : "block20_eltsum_105block20_relu_after_sum",
      "type" : "elementwise",
      "name" : "block20_eltsum",
      "beta" : 0
    },
    {
      "bottom" : "block20_eltsum_105block20_relu_after_sum",
      "weights" : {

      },
      "mode" : 0,
      "debug_info" : "block20_relu_after_sum",
      "top" : "block20_eltsum",
      "type" : "activation",
      "name" : "block20_relu_after_sum"
    },
    {
      "pad_r" : 1,
      "fused_relu" : 1,
      "fused_tanh" : 0,
      "debug_info" : "block21_conv_a",
      "pad_fill_mode" : 0,
      "pad_b" : 1,
      "pad_l" : 1,
      "top" : "block21_conv_a",
      "blob_weights" : 179,
      "K" : 64,
      "blob_biases" : 177,
      "name" : "block21_conv_a",
      "has_batch_norm" : 0,
      "type" : "convolution",
      "n_groups" : 64,
      "pad_t" : 1,
      "has_biases" : 1,
      "C" : 64,
      "bottom" : "block20_eltsum",
      "weights" : {

      },
      "Nx" : 3,
      "pad_mode" : 0,
      "pad_value" : 0,
      "Ny" : 3,
      "n_parallel" : 1
    },
    {
      "pad_r" : 0,
      "fused_relu" : 0,
      "fused_tanh" : 0,
      "debug_info" : "block21_conv_b",
      "pad_fill_mode" : 0,
      "pad_b" : 0,
      "pad_l" : 0,
      "top" : "block21_conv_b",
      "blob_weights" : 183,
      "K" : 64,
      "blob_biases" : 181,
      "name" : "block21_conv_b",
      "has_batch_norm" : 0,
      "type" : "convolution",
      "n_groups" : 1,
      "pad_t" : 0,
      "has_biases" : 1,
      "C" : 64,
      "bottom" : "block21_conv_a",
      "weights" : {

      },
      "Nx" : 1,
      "pad_mode" : 0,
      "pad_value" : 0,
      "Ny" : 1,
      "n_parallel" : 1
    },
    {
      "bottom" : "block20_eltsum,block21_conv_b",
      "alpha" : 1,
      "operation" : 0,
      "weights" : {

      },
      "fused_relu" : 0,
      "debug_info" : "block21_eltsum",
      "top" : "block21_eltsum_110block21_relu_after_sum",
      "type" : "elementwise",
      "name" : "block21_eltsum",
      "beta" : 0
    },
    {
      "bottom" : "block21_eltsum_110block21_relu_after_sum",
      "weights" : {

      },
      "mode" : 0,
      "debug_info" : "block21_relu_after_sum",
      "top" : "block21_eltsum",
      "type" : "activation",
      "name" : "block21_relu_after_sum"
    },
    {
      "pad_r" : 1,
      "fused_relu" : 1,
      "fused_tanh" : 0,
      "debug_info" : "block22_conv_a",
      "pad_fill_mode" : 0,
      "pad_b" : 1,
      "pad_l" : 1,
      "top" : "block22_conv_a",
      "blob_weights" : 187,
      "K" : 64,
      "blob_biases" : 185,
      "name" : "block22_conv_a",
      "has_batch_norm" : 0,
      "type" : "convolution",
      "n_groups" : 64,
      "pad_t" : 1,
      "has_biases" : 1,
      "C" : 64,
      "bottom" : "block21_eltsum",
      "weights" : {

      },
      "Nx" : 3,
      "pad_mode" : 0,
      "pad_value" : 0,
      "Ny" : 3,
      "n_parallel" : 1
    },
    {
      "pad_r" : 0,
      "fused_relu" : 0,
      "fused_tanh" : 0,
      "debug_info" : "block22_conv_b",
      "pad_fill_mode" : 0,
      "pad_b" : 0,
      "pad_l" : 0,
      "top" : "block22_conv_b",
      "blob_weights" : 191,
      "K" : 64,
      "blob_biases" : 189,
      "name" : "block22_conv_b",
      "has_batch_norm" : 0,
      "type" : "convolution",
      "n_groups" : 1,
      "pad_t" : 0,
      "has_biases" : 1,
      "C" : 64,
      "bottom" : "block22_conv_a",
      "weights" : {

      },
      "Nx" : 1,
      "pad_mode" : 0,
      "pad_value" : 0,
      "Ny" : 1,
      "n_parallel" : 1
    },
    {
      "bottom" : "block21_eltsum,block22_conv_b",
      "alpha" : 1,
      "operation" : 0,
      "weights" : {

      },
      "fused_relu" : 0,
      "debug_info" : "block22_eltsum",
      "top" : "block22_eltsum_115block22_relu_after_sum",
      "type" : "elementwise",
      "name" : "block22_eltsum",
      "beta" : 0
    },
    {
      "bottom" : "block22_eltsum_115block22_relu_after_sum",
      "weights" : {

      },
      "mode" : 0,
      "debug_info" : "block22_relu_after_sum",
      "top" : "block22_eltsum",
      "type" : "activation",
      "name" : "block22_relu_after_sum"
    },
    {
      "pad_r" : 1,
      "fused_relu" : 0,
      "fused_tanh" : 0,
      "debug_info" : "nn_1",
      "pad_fill_mode" : 0,
      "pad_b" : 1,
      "pad_l" : 1,
      "top" : "nn_1",
      "blob_weights" : 193,
      "K" : 64,
      "stride_x" : 2,
      "name" : "nn_1",
      "has_batch_norm" : 0,
      "type" : "deconvolution",
      "n_groups" : 1,
      "pad_t" : 1,
      "stride_y" : 2,
      "has_biases" : 0,
      "C" : 64,
      "bottom" : "block22_eltsum",
      "weights" : {

      },
      "Nx" : 4,
      "pad_mode" : 0,
      "pad_value" : 0,
      "Ny" : 4,
      "n_parallel" : 1
    },
    {
      "pad_r" : 0,
      "fused_relu" : 0,
      "fused_tanh" : 0,
      "debug_info" : "decoder1_conv_proj",
      "pad_fill_mode" : 0,
      "pad_b" : 0,
      "pad_l" : 0,
      "top" : "decoder1_conv_proj",
      "blob_weights" : 197,
      "K" : 64,
      "blob_biases" : 195,
      "name" : "decoder1_conv_proj",
      "has_batch_norm" : 0,
      "type" : "convolution",
      "n_groups" : 1,
      "pad_t" : 0,
      "has_biases" : 1,
      "C" : 16,
      "bottom" : "nn_1",
      "weights" : {

      },
      "Nx" : 1,
      "pad_mode" : 0,
      "pad_value" : 0,
      "Ny" : 1,
      "n_parallel" : 1
    },
    {
      "pad_r" : 1,
      "fused_relu" : 1,
      "fused_tanh" : 0,
      "debug_info" : "decoder1_conv_a",
      "pad_fill_mode" : 0,
      "pad_b" : 1,
      "pad_l" : 1,
      "top" : "decoder1_conv_a",
      "blob_weights" : 201,
      "K" : 64,
      "blob_biases" : 199,
      "name" : "decoder1_conv_a",
      "has_batch_norm" : 0,
      "type" : "convolution",
      "n_groups" : 64,
      "pad_t" : 1,
      "has_biases" : 1,
      "C" : 64,
      "bottom" : "nn_1",
      "weights" : {

      },
      "Nx" : 3,
      "pad_mode" : 0,
      "pad_value" : 0,
      "Ny" : 3,
      "n_parallel" : 1
    },
    {
      "pad_r" : 0,
      "fused_relu" : 0,
      "fused_tanh" : 0,
      "debug_info" : "decoder1_conv_b",
      "pad_fill_mode" : 0,
      "pad_b" : 0,
      "pad_l" : 0,
      "top" : "decoder1_conv_b",
      "blob_weights" : 205,
      "K" : 64,
      "blob_biases" : 203,
      "name" : "decoder1_conv_b",
      "has_batch_norm" : 0,
      "type" : "convolution",
      "n_groups" : 1,
      "pad_t" : 0,
      "has_biases" : 1,
      "C" : 16,
      "bottom" : "decoder1_conv_a",
      "weights" : {

      },
      "Nx" : 1,
      "pad_mode" : 0,
      "pad_value" : 0,
      "Ny" : 1,
      "n_parallel" : 1
    },
    {
      "bottom" : "decoder1_conv_proj,decoder1_conv_b",
      "alpha" : 1,
      "operation" : 0,
      "weights" : {

      },
      "fused_relu" : 0,
      "debug_info" : "decoder1_eltsum",
      "top" : "decoder1_eltsum_122decoder1_relu_after_sum",
      "type" : "elementwise",
      "name" : "decoder1_eltsum",
      "beta" : 0
    },
    {
      "bottom" : "decoder1_eltsum_122decoder1_relu_after_sum",
      "weights" : {

      },
      "mode" : 0,
      "debug_info" : "decoder1_relu_after_sum",
      "top" : "decoder1_eltsum",
      "type" : "activation",
      "name" : "decoder1_relu_after_sum"
    },
    {
      "pad_r" : 1,
      "fused_relu" : 0,
      "fused_tanh" : 0,
      "debug_info" : "nn_2",
      "pad_fill_mode" : 0,
      "pad_b" : 1,
      "pad_l" : 1,
      "top" : "nn_2",
      "blob_weights" : 207,
      "K" : 16,
      "stride_x" : 2,
      "name" : "nn_2",
      "has_batch_norm" : 0,
      "type" : "deconvolution",
      "n_groups" : 1,
      "pad_t" : 1,
      "stride_y" : 2,
      "has_biases" : 0,
      "C" : 16,
      "bottom" : "decoder1_eltsum",
      "weights" : {

      },
      "Nx" : 4,
      "pad_mode" : 0,
      "pad_value" : 0,
      "Ny" : 4,
      "n_parallel" : 1
    },
    {
      "pad_r" : 0,
      "fused_relu" : 0,
      "fused_tanh" : 0,
      "debug_info" : "decoder2_conv_proj",
      "pad_fill_mode" : 0,
      "pad_b" : 0,
      "pad_l" : 0,
      "top" : "decoder2_conv_proj",
      "blob_weights" : 211,
      "K" : 16,
      "blob_biases" : 209,
      "name" : "decoder2_conv_proj",
      "has_batch_norm" : 0,
      "type" : "convolution",
      "n_groups" : 1,
      "pad_t" : 0,
      "has_biases" : 1,
      "C" : 8,
      "bottom" : "nn_2",
      "weights" : {

      },
      "Nx" : 1,
      "pad_mode" : 0,
      "pad_value" : 0,
      "Ny" : 1,
      "n_parallel" : 1
    },
    {
      "pad_r" : 1,
      "fused_relu" : 1,
      "fused_tanh" : 0,
      "debug_info" : "decoder2_conv_a",
      "pad_fill_mode" : 0,
      "pad_b" : 1,
      "pad_l" : 1,
      "top" : "decoder2_conv_a",
      "blob_weights" : 215,
      "K" : 16,
      "blob_biases" : 213,
      "name" : "decoder2_conv_a",
      "has_batch_norm" : 0,
      "type" : "convolution",
      "n_groups" : 16,
      "pad_t" : 1,
      "has_biases" : 1,
      "C" : 16,
      "bottom" : "nn_2",
      "weights" : {

      },
      "Nx" : 3,
      "pad_mode" : 0,
      "pad_value" : 0,
      "Ny" : 3,
      "n_parallel" : 1
    },
    {
      "pad_r" : 0,
      "fused_relu" : 0,
      "fused_tanh" : 0,
      "debug_info" : "decoder2_conv_b",
      "pad_fill_mode" : 0,
      "pad_b" : 0,
      "pad_l" : 0,
      "top" : "decoder2_conv_b",
      "blob_weights" : 219,
      "K" : 16,
      "blob_biases" : 217,
      "name" : "decoder2_conv_b",
      "has_batch_norm" : 0,
      "type" : "convolution",
      "n_groups" : 1,
      "pad_t" : 0,
      "has_biases" : 1,
      "C" : 8,
      "bottom" : "decoder2_conv_a",
      "weights" : {

      },
      "Nx" : 1,
      "pad_mode" : 0,
      "pad_value" : 0,
      "Ny" : 1,
      "n_parallel" : 1
    },
    {
      "bottom" : "decoder2_conv_proj,decoder2_conv_b",
      "alpha" : 1,
      "operation" : 0,
      "weights" : {

      },
      "fused_relu" : 0,
      "debug_info" : "decoder2_eltsum",
      "top" : "decoder2_eltsum_129decoder2_relu_after_sum",
      "type" : "elementwise",
      "name" : "decoder2_eltsum",
      "beta" : 0
    },
    {
      "bottom" : "decoder2_eltsum_129decoder2_relu_after_sum",
      "weights" : {

      },
      "mode" : 0,
      "debug_info" : "decoder2_relu_after_sum",
      "top" : "decoder2_eltsum",
      "type" : "activation",
      "name" : "decoder2_relu_after_sum"
    },
    {
      "pad_r" : 0,
      "fused_relu" : 0,
      "fused_tanh" : 0,
      "debug_info" : "pred_small",
      "pad_fill_mode" : 0,
      "pad_b" : 0,
      "pad_l" : 0,
      "top" : "pred_small",
      "blob_weights" : 223,
      "K" : 8,
      "blob_biases" : 221,
      "name" : "pred_small",
      "has_batch_norm" : 0,
      "type" : "convolution",
      "n_groups" : 1,
      "pad_t" : 0,
      "has_biases" : 1,
      "C" : 2,
      "bottom" : "decoder2_eltsum",
      "weights" : {

      },
      "Nx" : 1,
      "pad_mode" : 0,
      "pad_value" : 0,
      "Ny" : 1,
      "n_parallel" : 1
    },
    {
      "pad_r" : 1,
      "fused_relu" : 0,
      "fused_tanh" : 0,
      "debug_info" : "up_pred",
      "pad_fill_mode" : 0,
      "pad_b" : 1,
      "pad_l" : 1,
      "top" : "pred",
      "blob_weights" : 225,
      "K" : 2,
      "stride_x" : 2,
      "name" : "up_pred",
      "has_batch_norm" : 0,
      "type" : "deconvolution",
      "n_groups" : 1,
      "pad_t" : 1,
      "stride_y" : 2,
      "has_biases" : 0,
      "C" : 2,
      "bottom" : "pred_small",
      "weights" : {

      },
      "Nx" : 4,
      "pad_mode" : 0,
      "pad_value" : 0,
      "Ny" : 4,
      "n_parallel" : 1
    },
    {
      "bottom" : "pred",
      "attributes" : {
        "is_output" : 1
      },
      "weights" : {

      },
      "debug_info" : "prob",
      "top" : "prob",
      "C" : 2,
      "type" : "softmax",
      "name" : "prob"
    }
  ],
  "transform_params" : {
    "data" : {
      "bias_a" : 0,
      "bias_g" : -128,
      "bias_r" : -128,
      "bias_b" : -128,
      "center_mean" : 0,
      "is_network_bgr" : 1,
      "scale" : 1
    }
  },
  "storage" : "model.espresso.weights",
  "metadata_in_weights" : [

  ],
  "properties" : {

  },
  "analyses" : {

  },
  "format_version" : 200
}