{
  "storage" : "model.espresso.weights",
  "analyses" : {

  },
  "properties" : {

  },
  "format_version" : 200,
  "metadata_in_weights" : [

  ],
  "layers" : [
    {
      "weights" : {

      },
      "target_size_w" : 224,
      "grid_sampling_mode" : 1,
      "crop_index_mode" : 0,
      "spatial_scale" : 1,
      "type" : "crop_and_resize",
      "mode" : 1,
      "resized_dims" : 0,
      "bottom" : "input_image",
      "debug_info" : "Upsample_0",
      "target_size_h" : 128,
      "name" : "Upsample_0",
      "top" : "374"
    },
    {
      "bottom" : "",
      "k" : 1,
      "n" : 1,
      "weights" : {

      },
      "h" : 1,
      "debug_info" : "375",
      "constant_blob" : 1,
      "top" : "375",
      "w" : 1,
      "type" : "load_constant",
      "name" : "375"
    },
    {
      "bottom" : "375",
      "alpha" : 1,
      "operation" : 10,
      "eps" : 9.9999997473787516e-05,
      "weights" : {

      },
      "fused_relu" : 0,
      "debug_info" : "Div_2_inverse",
      "top" : "375_inverse",
      "type" : "elementwise",
      "name" : "Div_2_inverse",
      "beta" : 0
    },
    {
      "bottom" : "374,375_inverse",
      "alpha" : 1,
      "operation" : 1,
      "weights" : {

      },
      "fused_relu" : 0,
      "debug_info" : "Div_2",
      "top" : "376",
      "type" : "elementwise",
      "name" : "Div_2",
      "beta" : 0
    },
    {
      "bottom" : "",
      "k" : 1,
      "n" : 1,
      "weights" : {

      },
      "h" : 1,
      "debug_info" : "377",
      "constant_blob" : 3,
      "top" : "377",
      "w" : 1,
      "type" : "load_constant",
      "name" : "377"
    },
    {
      "bottom" : "377",
      "alpha" : -1,
      "operation" : 1,
      "weights" : {

      },
      "fused_relu" : 0,
      "debug_info" : "Sub_4_neg",
      "top" : "377_neg",
      "type" : "elementwise",
      "name" : "Sub_4_neg",
      "beta" : 0
    },
    {
      "bottom" : "376,377_neg",
      "alpha" : 1,
      "operation" : 0,
      "weights" : {

      },
      "fused_relu" : 0,
      "debug_info" : "Sub_4",
      "top" : "378",
      "type" : "elementwise",
      "name" : "Sub_4",
      "beta" : 0
    },
    {
      "bottom" : "",
      "k" : 1,
      "n" : 1,
      "weights" : {

      },
      "h" : 1,
      "debug_info" : "379",
      "constant_blob" : 5,
      "top" : "379",
      "w" : 1,
      "type" : "load_constant",
      "name" : "379"
    },
    {
      "bottom" : "379",
      "alpha" : 1,
      "operation" : 10,
      "eps" : 9.9999997473787516e-05,
      "weights" : {

      },
      "fused_relu" : 0,
      "debug_info" : "Div_6_inverse",
      "top" : "379_inverse",
      "type" : "elementwise",
      "name" : "Div_6_inverse",
      "beta" : 0
    },
    {
      "bottom" : "378,379_inverse",
      "alpha" : 1,
      "operation" : 1,
      "weights" : {

      },
      "fused_relu" : 0,
      "debug_info" : "Div_6",
      "top" : "380",
      "type" : "elementwise",
      "name" : "Div_6",
      "beta" : 0
    },
    {
      "pad_r" : 1,
      "fused_relu" : 0,
      "fused_tanh" : 0,
      "debug_info" : "Conv_7",
      "pad_fill_mode" : 0,
      "pad_b" : 1,
      "pad_l" : 1,
      "top" : "572",
      "K" : 4,
      "blob_biases" : 7,
      "stride_x" : 2,
      "name" : "Conv_7",
      "has_batch_norm" : 0,
      "type" : "convolution",
      "n_groups" : 1,
      "pad_t" : 1,
      "stride_y" : 2,
      "has_biases" : 1,
      "C" : 32,
      "bottom" : "380",
      "weights" : {

      },
      "Nx" : 3,
      "pad_mode" : 0,
      "pad_value" : 0,
      "Ny" : 3,
      "n_parallel" : 1,
      "blob_weights_f16" : 9
    },
    {
      "bottom" : "572",
      "alpha" : 0,
      "operation" : 25,
      "weights" : {

      },
      "fused_relu" : 0,
      "debug_info" : "Clip_8_min_x_a",
      "top" : "572_min_x_a",
      "type" : "elementwise",
      "name" : "Clip_8_min_x_a",
      "beta" : 0
    },
    {
      "bottom" : "572_min_x_a",
      "alpha" : -1,
      "operation" : 1,
      "weights" : {

      },
      "fused_relu" : 0,
      "debug_info" : "Clip_8_min_minus_x_minus_b",
      "top" : "572_min_x_a_13_post_scale",
      "type" : "elementwise",
      "name" : "Clip_8_min_minus_x_minus_b_scale",
      "beta" : 0
    },
    {
      "bottom" : "572_min_x_a_13_post_scale",
      "alpha" : 0,
      "operation" : 0,
      "weights" : {

      },
      "fused_relu" : 0,
      "debug_info" : "Clip_8_min_minus_x_minus_b",
      "top" : "572_min_x_a_13_post_scale_shift",
      "type" : "elementwise",
      "name" : "Clip_8_min_minus_x_minus_b_shift",
      "beta" : 0
    },
    {
      "bottom" : "572_min_x_a_13_post_scale_shift",
      "alpha" : -6,
      "operation" : 25,
      "weights" : {

      },
      "fused_relu" : 0,
      "debug_info" : "Clip_8_min_minus_x_minus_b",
      "top" : "572_min_minus_x_minus_b",
      "type" : "elementwise",
      "name" : "Clip_8_min_minus_x_minus_b",
      "beta" : 0
    },
    {
      "alpha" : -1,
      "bottom" : "572_min_minus_x_minus_b",
      "weights" : {

      },
      "mode" : 6,
      "debug_info" : "Clip_8",
      "top" : "383",
      "type" : "activation",
      "name" : "Clip_8",
      "beta" : 0
    },
    {
      "pad_r" : 1,
      "fused_relu" : 0,
      "fused_tanh" : 0,
      "debug_info" : "Conv_9",
      "pad_fill_mode" : 0,
      "pad_b" : 1,
      "pad_l" : 1,
      "top" : "575",
      "K" : 32,
      "blob_biases" : 11,
      "name" : "Conv_9",
      "has_batch_norm" : 0,
      "type" : "convolution",
      "n_groups" : 32,
      "pad_t" : 1,
      "has_biases" : 1,
      "C" : 32,
      "bottom" : "383",
      "weights" : {

      },
      "Nx" : 3,
      "pad_mode" : 0,
      "pad_value" : 0,
      "Ny" : 3,
      "n_parallel" : 1,
      "blob_weights_f16" : 13
    },
    {
      "bottom" : "575",
      "alpha" : 0,
      "operation" : 25,
      "weights" : {

      },
      "fused_relu" : 0,
      "debug_info" : "Clip_10_min_x_a",
      "top" : "575_min_x_a",
      "type" : "elementwise",
      "name" : "Clip_10_min_x_a",
      "beta" : 0
    },
    {
      "bottom" : "575_min_x_a",
      "alpha" : -1,
      "operation" : 1,
      "weights" : {

      },
      "fused_relu" : 0,
      "debug_info" : "Clip_10_min_minus_x_minus_b",
      "top" : "575_min_x_a_17_post_scale",
      "type" : "elementwise",
      "name" : "Clip_10_min_minus_x_minus_b_scale",
      "beta" : 0
    },
    {
      "bottom" : "575_min_x_a_17_post_scale",
      "alpha" : 0,
      "operation" : 0,
      "weights" : {

      },
      "fused_relu" : 0,
      "debug_info" : "Clip_10_min_minus_x_minus_b",
      "top" : "575_min_x_a_17_post_scale_shift",
      "type" : "elementwise",
      "name" : "Clip_10_min_minus_x_minus_b_shift",
      "beta" : 0
    },
    {
      "bottom" : "575_min_x_a_17_post_scale_shift",
      "alpha" : -6,
      "operation" : 25,
      "weights" : {

      },
      "fused_relu" : 0,
      "debug_info" : "Clip_10_min_minus_x_minus_b",
      "top" : "575_min_minus_x_minus_b",
      "type" : "elementwise",
      "name" : "Clip_10_min_minus_x_minus_b",
      "beta" : 0
    },
    {
      "alpha" : -1,
      "bottom" : "575_min_minus_x_minus_b",
      "weights" : {

      },
      "mode" : 6,
      "debug_info" : "Clip_10",
      "top" : "386",
      "type" : "activation",
      "name" : "Clip_10",
      "beta" : 0
    },
    {
      "pad_r" : 0,
      "fused_relu" : 0,
      "fused_tanh" : 0,
      "debug_info" : "Conv_11",
      "pad_fill_mode" : 0,
      "pad_b" : 0,
      "pad_l" : 0,
      "top" : "578",
      "K" : 32,
      "blob_biases" : 15,
      "name" : "Conv_11",
      "has_batch_norm" : 0,
      "type" : "convolution",
      "n_groups" : 1,
      "pad_t" : 0,
      "has_biases" : 1,
      "C" : 16,
      "bottom" : "386",
      "weights" : {

      },
      "Nx" : 1,
      "pad_mode" : 0,
      "pad_value" : 0,
      "Ny" : 1,
      "n_parallel" : 1,
      "blob_weights_f16" : 17
    },
    {
      "pad_r" : 0,
      "fused_relu" : 0,
      "fused_tanh" : 0,
      "debug_info" : "Conv_12",
      "pad_fill_mode" : 0,
      "pad_b" : 0,
      "pad_l" : 0,
      "top" : "581",
      "K" : 16,
      "blob_biases" : 19,
      "name" : "Conv_12",
      "has_batch_norm" : 0,
      "type" : "convolution",
      "n_groups" : 1,
      "pad_t" : 0,
      "has_biases" : 1,
      "C" : 96,
      "bottom" : "578",
      "weights" : {

      },
      "Nx" : 1,
      "pad_mode" : 0,
      "pad_value" : 0,
      "Ny" : 1,
      "n_parallel" : 1,
      "blob_weights_f16" : 21
    },
    {
      "bottom" : "581",
      "alpha" : 0,
      "operation" : 25,
      "weights" : {

      },
      "fused_relu" : 0,
      "debug_info" : "Clip_13_min_x_a",
      "top" : "581_min_x_a",
      "type" : "elementwise",
      "name" : "Clip_13_min_x_a",
      "beta" : 0
    },
    {
      "bottom" : "581_min_x_a",
      "alpha" : -1,
      "operation" : 1,
      "weights" : {

      },
      "fused_relu" : 0,
      "debug_info" : "Clip_13_min_minus_x_minus_b",
      "top" : "581_min_x_a_22_post_scale",
      "type" : "elementwise",
      "name" : "Clip_13_min_minus_x_minus_b_scale",
      "beta" : 0
    },
    {
      "bottom" : "581_min_x_a_22_post_scale",
      "alpha" : 0,
      "operation" : 0,
      "weights" : {

      },
      "fused_relu" : 0,
      "debug_info" : "Clip_13_min_minus_x_minus_b",
      "top" : "581_min_x_a_22_post_scale_shift",
      "type" : "elementwise",
      "name" : "Clip_13_min_minus_x_minus_b_shift",
      "beta" : 0
    },
    {
      "bottom" : "581_min_x_a_22_post_scale_shift",
      "alpha" : -6,
      "operation" : 25,
      "weights" : {

      },
      "fused_relu" : 0,
      "debug_info" : "Clip_13_min_minus_x_minus_b",
      "top" : "581_min_minus_x_minus_b",
      "type" : "elementwise",
      "name" : "Clip_13_min_minus_x_minus_b",
      "beta" : 0
    },
    {
      "alpha" : -1,
      "bottom" : "581_min_minus_x_minus_b",
      "weights" : {

      },
      "mode" : 6,
      "debug_info" : "Clip_13",
      "top" : "391",
      "type" : "activation",
      "name" : "Clip_13",
      "beta" : 0
    },
    {
      "pad_r" : 1,
      "fused_relu" : 0,
      "fused_tanh" : 0,
      "debug_info" : "Conv_14",
      "pad_fill_mode" : 0,
      "pad_b" : 1,
      "pad_l" : 1,
      "top" : "584",
      "K" : 96,
      "blob_biases" : 23,
      "stride_x" : 2,
      "name" : "Conv_14",
      "has_batch_norm" : 0,
      "type" : "convolution",
      "n_groups" : 96,
      "pad_t" : 1,
      "stride_y" : 2,
      "has_biases" : 1,
      "C" : 96,
      "bottom" : "391",
      "weights" : {

      },
      "Nx" : 3,
      "pad_mode" : 0,
      "pad_value" : 0,
      "Ny" : 3,
      "n_parallel" : 1,
      "blob_weights_f16" : 25
    },
    {
      "bottom" : "584",
      "alpha" : 0,
      "operation" : 25,
      "weights" : {

      },
      "fused_relu" : 0,
      "debug_info" : "Clip_15_min_x_a",
      "top" : "584_min_x_a",
      "type" : "elementwise",
      "name" : "Clip_15_min_x_a",
      "beta" : 0
    },
    {
      "bottom" : "584_min_x_a",
      "alpha" : -1,
      "operation" : 1,
      "weights" : {

      },
      "fused_relu" : 0,
      "debug_info" : "Clip_15_min_minus_x_minus_b",
      "top" : "584_min_x_a_26_post_scale",
      "type" : "elementwise",
      "name" : "Clip_15_min_minus_x_minus_b_scale",
      "beta" : 0
    },
    {
      "bottom" : "584_min_x_a_26_post_scale",
      "alpha" : 0,
      "operation" : 0,
      "weights" : {

      },
      "fused_relu" : 0,
      "debug_info" : "Clip_15_min_minus_x_minus_b",
      "top" : "584_min_x_a_26_post_scale_shift",
      "type" : "elementwise",
      "name" : "Clip_15_min_minus_x_minus_b_shift",
      "beta" : 0
    },
    {
      "bottom" : "584_min_x_a_26_post_scale_shift",
      "alpha" : -6,
      "operation" : 25,
      "weights" : {

      },
      "fused_relu" : 0,
      "debug_info" : "Clip_15_min_minus_x_minus_b",
      "top" : "584_min_minus_x_minus_b",
      "type" : "elementwise",
      "name" : "Clip_15_min_minus_x_minus_b",
      "beta" : 0
    },
    {
      "alpha" : -1,
      "bottom" : "584_min_minus_x_minus_b",
      "weights" : {

      },
      "mode" : 6,
      "debug_info" : "Clip_15",
      "top" : "394",
      "type" : "activation",
      "name" : "Clip_15",
      "beta" : 0
    },
    {
      "pad_r" : 0,
      "fused_relu" : 0,
      "fused_tanh" : 0,
      "debug_info" : "Conv_16",
      "pad_fill_mode" : 0,
      "pad_b" : 0,
      "pad_l" : 0,
      "top" : "587",
      "K" : 96,
      "blob_biases" : 27,
      "name" : "Conv_16",
      "has_batch_norm" : 0,
      "type" : "convolution",
      "n_groups" : 1,
      "pad_t" : 0,
      "has_biases" : 1,
      "C" : 24,
      "bottom" : "394",
      "weights" : {

      },
      "Nx" : 1,
      "pad_mode" : 0,
      "pad_value" : 0,
      "Ny" : 1,
      "n_parallel" : 1,
      "blob_weights_f16" : 29
    },
    {
      "pad_r" : 0,
      "fused_relu" : 0,
      "fused_tanh" : 0,
      "debug_info" : "Conv_17",
      "pad_fill_mode" : 0,
      "pad_b" : 0,
      "pad_l" : 0,
      "top" : "590",
      "K" : 24,
      "blob_biases" : 31,
      "name" : "Conv_17",
      "has_batch_norm" : 0,
      "type" : "convolution",
      "n_groups" : 1,
      "pad_t" : 0,
      "has_biases" : 1,
      "C" : 144,
      "bottom" : "587",
      "weights" : {

      },
      "Nx" : 1,
      "pad_mode" : 0,
      "pad_value" : 0,
      "Ny" : 1,
      "n_parallel" : 1,
      "blob_weights_f16" : 33
    },
    {
      "bottom" : "590",
      "alpha" : 0,
      "operation" : 25,
      "weights" : {

      },
      "fused_relu" : 0,
      "debug_info" : "Clip_18_min_x_a",
      "top" : "590_min_x_a",
      "type" : "elementwise",
      "name" : "Clip_18_min_x_a",
      "beta" : 0
    },
    {
      "bottom" : "590_min_x_a",
      "alpha" : -1,
      "operation" : 1,
      "weights" : {

      },
      "fused_relu" : 0,
      "debug_info" : "Clip_18_min_minus_x_minus_b",
      "top" : "590_min_x_a_31_post_scale",
      "type" : "elementwise",
      "name" : "Clip_18_min_minus_x_minus_b_scale",
      "beta" : 0
    },
    {
      "bottom" : "590_min_x_a_31_post_scale",
      "alpha" : 0,
      "operation" : 0,
      "weights" : {

      },
      "fused_relu" : 0,
      "debug_info" : "Clip_18_min_minus_x_minus_b",
      "top" : "590_min_x_a_31_post_scale_shift",
      "type" : "elementwise",
      "name" : "Clip_18_min_minus_x_minus_b_shift",
      "beta" : 0
    },
    {
      "bottom" : "590_min_x_a_31_post_scale_shift",
      "alpha" : -6,
      "operation" : 25,
      "weights" : {

      },
      "fused_relu" : 0,
      "debug_info" : "Clip_18_min_minus_x_minus_b",
      "top" : "590_min_minus_x_minus_b",
      "type" : "elementwise",
      "name" : "Clip_18_min_minus_x_minus_b",
      "beta" : 0
    },
    {
      "alpha" : -1,
      "bottom" : "590_min_minus_x_minus_b",
      "weights" : {

      },
      "mode" : 6,
      "debug_info" : "Clip_18",
      "top" : "399",
      "type" : "activation",
      "name" : "Clip_18",
      "beta" : 0
    },
    {
      "pad_r" : 1,
      "fused_relu" : 0,
      "fused_tanh" : 0,
      "debug_info" : "Conv_19",
      "pad_fill_mode" : 0,
      "pad_b" : 1,
      "pad_l" : 1,
      "top" : "593",
      "K" : 144,
      "blob_biases" : 35,
      "name" : "Conv_19",
      "has_batch_norm" : 0,
      "type" : "convolution",
      "n_groups" : 144,
      "pad_t" : 1,
      "has_biases" : 1,
      "C" : 144,
      "bottom" : "399",
      "weights" : {

      },
      "Nx" : 3,
      "pad_mode" : 0,
      "pad_value" : 0,
      "Ny" : 3,
      "n_parallel" : 1,
      "blob_weights_f16" : 37
    },
    {
      "bottom" : "593",
      "alpha" : 0,
      "operation" : 25,
      "weights" : {

      },
      "fused_relu" : 0,
      "debug_info" : "Clip_20_min_x_a",
      "top" : "593_min_x_a",
      "type" : "elementwise",
      "name" : "Clip_20_min_x_a",
      "beta" : 0
    },
    {
      "bottom" : "593_min_x_a",
      "alpha" : -1,
      "operation" : 1,
      "weights" : {

      },
      "fused_relu" : 0,
      "debug_info" : "Clip_20_min_minus_x_minus_b",
      "top" : "593_min_x_a_35_post_scale",
      "type" : "elementwise",
      "name" : "Clip_20_min_minus_x_minus_b_scale",
      "beta" : 0
    },
    {
      "bottom" : "593_min_x_a_35_post_scale",
      "alpha" : 0,
      "operation" : 0,
      "weights" : {

      },
      "fused_relu" : 0,
      "debug_info" : "Clip_20_min_minus_x_minus_b",
      "top" : "593_min_x_a_35_post_scale_shift",
      "type" : "elementwise",
      "name" : "Clip_20_min_minus_x_minus_b_shift",
      "beta" : 0
    },
    {
      "bottom" : "593_min_x_a_35_post_scale_shift",
      "alpha" : -6,
      "operation" : 25,
      "weights" : {

      },
      "fused_relu" : 0,
      "debug_info" : "Clip_20_min_minus_x_minus_b",
      "top" : "593_min_minus_x_minus_b",
      "type" : "elementwise",
      "name" : "Clip_20_min_minus_x_minus_b",
      "beta" : 0
    },
    {
      "alpha" : -1,
      "bottom" : "593_min_minus_x_minus_b",
      "weights" : {

      },
      "mode" : 6,
      "debug_info" : "Clip_20",
      "top" : "402",
      "type" : "activation",
      "name" : "Clip_20",
      "beta" : 0
    },
    {
      "pad_r" : 0,
      "fused_relu" : 0,
      "fused_tanh" : 0,
      "debug_info" : "Conv_21",
      "pad_fill_mode" : 0,
      "pad_b" : 0,
      "pad_l" : 0,
      "top" : "596",
      "K" : 144,
      "blob_biases" : 39,
      "name" : "Conv_21",
      "has_batch_norm" : 0,
      "type" : "convolution",
      "n_groups" : 1,
      "pad_t" : 0,
      "has_biases" : 1,
      "C" : 24,
      "bottom" : "402",
      "weights" : {

      },
      "Nx" : 1,
      "pad_mode" : 0,
      "pad_value" : 0,
      "Ny" : 1,
      "n_parallel" : 1,
      "blob_weights_f16" : 41
    },
    {
      "bottom" : "587,596",
      "alpha" : 1,
      "operation" : 0,
      "weights" : {

      },
      "fused_relu" : 0,
      "debug_info" : "Add_22",
      "top" : "405",
      "type" : "elementwise",
      "name" : "Add_22",
      "beta" : 0
    },
    {
      "pad_r" : 0,
      "fused_relu" : 0,
      "fused_tanh" : 0,
      "debug_info" : "Conv_23",
      "pad_fill_mode" : 0,
      "pad_b" : 0,
      "pad_l" : 0,
      "top" : "599",
      "K" : 24,
      "blob_biases" : 43,
      "name" : "Conv_23",
      "has_batch_norm" : 0,
      "type" : "convolution",
      "n_groups" : 1,
      "pad_t" : 0,
      "has_biases" : 1,
      "C" : 144,
      "bottom" : "405",
      "weights" : {

      },
      "Nx" : 1,
      "pad_mode" : 0,
      "pad_value" : 0,
      "Ny" : 1,
      "n_parallel" : 1,
      "blob_weights_f16" : 45
    },
    {
      "bottom" : "599",
      "alpha" : 0,
      "operation" : 25,
      "weights" : {

      },
      "fused_relu" : 0,
      "debug_info" : "Clip_24_min_x_a",
      "top" : "599_min_x_a",
      "type" : "elementwise",
      "name" : "Clip_24_min_x_a",
      "beta" : 0
    },
    {
      "bottom" : "599_min_x_a",
      "alpha" : -1,
      "operation" : 1,
      "weights" : {

      },
      "fused_relu" : 0,
      "debug_info" : "Clip_24_min_minus_x_minus_b",
      "top" : "599_min_x_a_41_post_scale",
      "type" : "elementwise",
      "name" : "Clip_24_min_minus_x_minus_b_scale",
      "beta" : 0
    },
    {
      "bottom" : "599_min_x_a_41_post_scale",
      "alpha" : 0,
      "operation" : 0,
      "weights" : {

      },
      "fused_relu" : 0,
      "debug_info" : "Clip_24_min_minus_x_minus_b",
      "top" : "599_min_x_a_41_post_scale_shift",
      "type" : "elementwise",
      "name" : "Clip_24_min_minus_x_minus_b_shift",
      "beta" : 0
    },
    {
      "bottom" : "599_min_x_a_41_post_scale_shift",
      "alpha" : -6,
      "operation" : 25,
      "weights" : {

      },
      "fused_relu" : 0,
      "debug_info" : "Clip_24_min_minus_x_minus_b",
      "top" : "599_min_minus_x_minus_b",
      "type" : "elementwise",
      "name" : "Clip_24_min_minus_x_minus_b",
      "beta" : 0
    },
    {
      "alpha" : -1,
      "bottom" : "599_min_minus_x_minus_b",
      "weights" : {

      },
      "mode" : 6,
      "debug_info" : "Clip_24",
      "top" : "408",
      "type" : "activation",
      "name" : "Clip_24",
      "beta" : 0
    },
    {
      "pad_r" : 1,
      "fused_relu" : 0,
      "fused_tanh" : 0,
      "debug_info" : "Conv_25",
      "pad_fill_mode" : 0,
      "pad_b" : 1,
      "pad_l" : 1,
      "top" : "602",
      "K" : 144,
      "blob_biases" : 47,
      "stride_x" : 2,
      "name" : "Conv_25",
      "has_batch_norm" : 0,
      "type" : "convolution",
      "n_groups" : 144,
      "pad_t" : 1,
      "stride_y" : 2,
      "has_biases" : 1,
      "C" : 144,
      "bottom" : "408",
      "weights" : {

      },
      "Nx" : 3,
      "pad_mode" : 0,
      "pad_value" : 0,
      "Ny" : 3,
      "n_parallel" : 1,
      "blob_weights_f16" : 49
    },
    {
      "bottom" : "602",
      "alpha" : 0,
      "operation" : 25,
      "weights" : {

      },
      "fused_relu" : 0,
      "debug_info" : "Clip_26_min_x_a",
      "top" : "602_min_x_a",
      "type" : "elementwise",
      "name" : "Clip_26_min_x_a",
      "beta" : 0
    },
    {
      "bottom" : "602_min_x_a",
      "alpha" : -1,
      "operation" : 1,
      "weights" : {

      },
      "fused_relu" : 0,
      "debug_info" : "Clip_26_min_minus_x_minus_b",
      "top" : "602_min_x_a_45_post_scale",
      "type" : "elementwise",
      "name" : "Clip_26_min_minus_x_minus_b_scale",
      "beta" : 0
    },
    {
      "bottom" : "602_min_x_a_45_post_scale",
      "alpha" : 0,
      "operation" : 0,
      "weights" : {

      },
      "fused_relu" : 0,
      "debug_info" : "Clip_26_min_minus_x_minus_b",
      "top" : "602_min_x_a_45_post_scale_shift",
      "type" : "elementwise",
      "name" : "Clip_26_min_minus_x_minus_b_shift",
      "beta" : 0
    },
    {
      "bottom" : "602_min_x_a_45_post_scale_shift",
      "alpha" : -6,
      "operation" : 25,
      "weights" : {

      },
      "fused_relu" : 0,
      "debug_info" : "Clip_26_min_minus_x_minus_b",
      "top" : "602_min_minus_x_minus_b",
      "type" : "elementwise",
      "name" : "Clip_26_min_minus_x_minus_b",
      "beta" : 0
    },
    {
      "alpha" : -1,
      "bottom" : "602_min_minus_x_minus_b",
      "weights" : {

      },
      "mode" : 6,
      "debug_info" : "Clip_26",
      "top" : "411",
      "type" : "activation",
      "name" : "Clip_26",
      "beta" : 0
    },
    {
      "pad_r" : 0,
      "fused_relu" : 0,
      "fused_tanh" : 0,
      "debug_info" : "Conv_27",
      "pad_fill_mode" : 0,
      "pad_b" : 0,
      "pad_l" : 0,
      "top" : "605",
      "K" : 144,
      "blob_biases" : 51,
      "name" : "Conv_27",
      "has_batch_norm" : 0,
      "type" : "convolution",
      "n_groups" : 1,
      "pad_t" : 0,
      "has_biases" : 1,
      "C" : 32,
      "bottom" : "411",
      "weights" : {

      },
      "Nx" : 1,
      "pad_mode" : 0,
      "pad_value" : 0,
      "Ny" : 1,
      "n_parallel" : 1,
      "blob_weights_f16" : 53
    },
    {
      "pad_r" : 0,
      "fused_relu" : 0,
      "fused_tanh" : 0,
      "debug_info" : "Conv_28",
      "pad_fill_mode" : 0,
      "pad_b" : 0,
      "pad_l" : 0,
      "top" : "608",
      "K" : 32,
      "blob_biases" : 55,
      "name" : "Conv_28",
      "has_batch_norm" : 0,
      "type" : "convolution",
      "n_groups" : 1,
      "pad_t" : 0,
      "has_biases" : 1,
      "C" : 192,
      "bottom" : "605",
      "weights" : {

      },
      "Nx" : 1,
      "pad_mode" : 0,
      "pad_value" : 0,
      "Ny" : 1,
      "n_parallel" : 1,
      "blob_weights_f16" : 57
    },
    {
      "bottom" : "608",
      "alpha" : 0,
      "operation" : 25,
      "weights" : {

      },
      "fused_relu" : 0,
      "debug_info" : "Clip_29_min_x_a",
      "top" : "608_min_x_a",
      "type" : "elementwise",
      "name" : "Clip_29_min_x_a",
      "beta" : 0
    },
    {
      "bottom" : "608_min_x_a",
      "alpha" : -1,
      "operation" : 1,
      "weights" : {

      },
      "fused_relu" : 0,
      "debug_info" : "Clip_29_min_minus_x_minus_b",
      "top" : "608_min_x_a_50_post_scale",
      "type" : "elementwise",
      "name" : "Clip_29_min_minus_x_minus_b_scale",
      "beta" : 0
    },
    {
      "bottom" : "608_min_x_a_50_post_scale",
      "alpha" : 0,
      "operation" : 0,
      "weights" : {

      },
      "fused_relu" : 0,
      "debug_info" : "Clip_29_min_minus_x_minus_b",
      "top" : "608_min_x_a_50_post_scale_shift",
      "type" : "elementwise",
      "name" : "Clip_29_min_minus_x_minus_b_shift",
      "beta" : 0
    },
    {
      "bottom" : "608_min_x_a_50_post_scale_shift",
      "alpha" : -6,
      "operation" : 25,
      "weights" : {

      },
      "fused_relu" : 0,
      "debug_info" : "Clip_29_min_minus_x_minus_b",
      "top" : "608_min_minus_x_minus_b",
      "type" : "elementwise",
      "name" : "Clip_29_min_minus_x_minus_b",
      "beta" : 0
    },
    {
      "alpha" : -1,
      "bottom" : "608_min_minus_x_minus_b",
      "weights" : {

      },
      "mode" : 6,
      "debug_info" : "Clip_29",
      "top" : "416",
      "type" : "activation",
      "name" : "Clip_29",
      "beta" : 0
    },
    {
      "pad_r" : 1,
      "fused_relu" : 0,
      "fused_tanh" : 0,
      "debug_info" : "Conv_30",
      "pad_fill_mode" : 0,
      "pad_b" : 1,
      "pad_l" : 1,
      "top" : "611",
      "K" : 192,
      "blob_biases" : 59,
      "name" : "Conv_30",
      "has_batch_norm" : 0,
      "type" : "convolution",
      "n_groups" : 192,
      "pad_t" : 1,
      "has_biases" : 1,
      "C" : 192,
      "bottom" : "416",
      "weights" : {

      },
      "Nx" : 3,
      "pad_mode" : 0,
      "pad_value" : 0,
      "Ny" : 3,
      "n_parallel" : 1,
      "blob_weights_f16" : 61
    },
    {
      "bottom" : "611",
      "alpha" : 0,
      "operation" : 25,
      "weights" : {

      },
      "fused_relu" : 0,
      "debug_info" : "Clip_31_min_x_a",
      "top" : "611_min_x_a",
      "type" : "elementwise",
      "name" : "Clip_31_min_x_a",
      "beta" : 0
    },
    {
      "bottom" : "611_min_x_a",
      "alpha" : -1,
      "operation" : 1,
      "weights" : {

      },
      "fused_relu" : 0,
      "debug_info" : "Clip_31_min_minus_x_minus_b",
      "top" : "611_min_x_a_54_post_scale",
      "type" : "elementwise",
      "name" : "Clip_31_min_minus_x_minus_b_scale",
      "beta" : 0
    },
    {
      "bottom" : "611_min_x_a_54_post_scale",
      "alpha" : 0,
      "operation" : 0,
      "weights" : {

      },
      "fused_relu" : 0,
      "debug_info" : "Clip_31_min_minus_x_minus_b",
      "top" : "611_min_x_a_54_post_scale_shift",
      "type" : "elementwise",
      "name" : "Clip_31_min_minus_x_minus_b_shift",
      "beta" : 0
    },
    {
      "bottom" : "611_min_x_a_54_post_scale_shift",
      "alpha" : -6,
      "operation" : 25,
      "weights" : {

      },
      "fused_relu" : 0,
      "debug_info" : "Clip_31_min_minus_x_minus_b",
      "top" : "611_min_minus_x_minus_b",
      "type" : "elementwise",
      "name" : "Clip_31_min_minus_x_minus_b",
      "beta" : 0
    },
    {
      "alpha" : -1,
      "bottom" : "611_min_minus_x_minus_b",
      "weights" : {

      },
      "mode" : 6,
      "debug_info" : "Clip_31",
      "top" : "419",
      "type" : "activation",
      "name" : "Clip_31",
      "beta" : 0
    },
    {
      "pad_r" : 0,
      "fused_relu" : 0,
      "fused_tanh" : 0,
      "debug_info" : "Conv_32",
      "pad_fill_mode" : 0,
      "pad_b" : 0,
      "pad_l" : 0,
      "top" : "614",
      "K" : 192,
      "blob_biases" : 63,
      "name" : "Conv_32",
      "has_batch_norm" : 0,
      "type" : "convolution",
      "n_groups" : 1,
      "pad_t" : 0,
      "has_biases" : 1,
      "C" : 32,
      "bottom" : "419",
      "weights" : {

      },
      "Nx" : 1,
      "pad_mode" : 0,
      "pad_value" : 0,
      "Ny" : 1,
      "n_parallel" : 1,
      "blob_weights_f16" : 65
    },
    {
      "bottom" : "605,614",
      "alpha" : 1,
      "operation" : 0,
      "weights" : {

      },
      "fused_relu" : 0,
      "debug_info" : "Add_33",
      "top" : "422",
      "type" : "elementwise",
      "name" : "Add_33",
      "beta" : 0
    },
    {
      "pad_r" : 0,
      "fused_relu" : 0,
      "fused_tanh" : 0,
      "debug_info" : "Conv_34",
      "pad_fill_mode" : 0,
      "pad_b" : 0,
      "pad_l" : 0,
      "top" : "617",
      "K" : 32,
      "blob_biases" : 67,
      "name" : "Conv_34",
      "has_batch_norm" : 0,
      "type" : "convolution",
      "n_groups" : 1,
      "pad_t" : 0,
      "has_biases" : 1,
      "C" : 192,
      "bottom" : "422",
      "weights" : {

      },
      "Nx" : 1,
      "pad_mode" : 0,
      "pad_value" : 0,
      "Ny" : 1,
      "n_parallel" : 1,
      "blob_weights_f16" : 69
    },
    {
      "bottom" : "617",
      "alpha" : 0,
      "operation" : 25,
      "weights" : {

      },
      "fused_relu" : 0,
      "debug_info" : "Clip_35_min_x_a",
      "top" : "617_min_x_a",
      "type" : "elementwise",
      "name" : "Clip_35_min_x_a",
      "beta" : 0
    },
    {
      "bottom" : "617_min_x_a",
      "alpha" : -1,
      "operation" : 1,
      "weights" : {

      },
      "fused_relu" : 0,
      "debug_info" : "Clip_35_min_minus_x_minus_b",
      "top" : "617_min_x_a_60_post_scale",
      "type" : "elementwise",
      "name" : "Clip_35_min_minus_x_minus_b_scale",
      "beta" : 0
    },
    {
      "bottom" : "617_min_x_a_60_post_scale",
      "alpha" : 0,
      "operation" : 0,
      "weights" : {

      },
      "fused_relu" : 0,
      "debug_info" : "Clip_35_min_minus_x_minus_b",
      "top" : "617_min_x_a_60_post_scale_shift",
      "type" : "elementwise",
      "name" : "Clip_35_min_minus_x_minus_b_shift",
      "beta" : 0
    },
    {
      "bottom" : "617_min_x_a_60_post_scale_shift",
      "alpha" : -6,
      "operation" : 25,
      "weights" : {

      },
      "fused_relu" : 0,
      "debug_info" : "Clip_35_min_minus_x_minus_b",
      "top" : "617_min_minus_x_minus_b",
      "type" : "elementwise",
      "name" : "Clip_35_min_minus_x_minus_b",
      "beta" : 0
    },
    {
      "alpha" : -1,
      "bottom" : "617_min_minus_x_minus_b",
      "weights" : {

      },
      "mode" : 6,
      "debug_info" : "Clip_35",
      "top" : "425",
      "type" : "activation",
      "name" : "Clip_35",
      "beta" : 0
    },
    {
      "pad_r" : 1,
      "fused_relu" : 0,
      "fused_tanh" : 0,
      "debug_info" : "Conv_36",
      "pad_fill_mode" : 0,
      "pad_b" : 1,
      "pad_l" : 1,
      "top" : "620",
      "K" : 192,
      "blob_biases" : 71,
      "name" : "Conv_36",
      "has_batch_norm" : 0,
      "type" : "convolution",
      "n_groups" : 192,
      "pad_t" : 1,
      "has_biases" : 1,
      "C" : 192,
      "bottom" : "425",
      "weights" : {

      },
      "Nx" : 3,
      "pad_mode" : 0,
      "pad_value" : 0,
      "Ny" : 3,
      "n_parallel" : 1,
      "blob_weights_f16" : 73
    },
    {
      "bottom" : "620",
      "alpha" : 0,
      "operation" : 25,
      "weights" : {

      },
      "fused_relu" : 0,
      "debug_info" : "Clip_37_min_x_a",
      "top" : "620_min_x_a",
      "type" : "elementwise",
      "name" : "Clip_37_min_x_a",
      "beta" : 0
    },
    {
      "bottom" : "620_min_x_a",
      "alpha" : -1,
      "operation" : 1,
      "weights" : {

      },
      "fused_relu" : 0,
      "debug_info" : "Clip_37_min_minus_x_minus_b",
      "top" : "620_min_x_a_64_post_scale",
      "type" : "elementwise",
      "name" : "Clip_37_min_minus_x_minus_b_scale",
      "beta" : 0
    },
    {
      "bottom" : "620_min_x_a_64_post_scale",
      "alpha" : 0,
      "operation" : 0,
      "weights" : {

      },
      "fused_relu" : 0,
      "debug_info" : "Clip_37_min_minus_x_minus_b",
      "top" : "620_min_x_a_64_post_scale_shift",
      "type" : "elementwise",
      "name" : "Clip_37_min_minus_x_minus_b_shift",
      "beta" : 0
    },
    {
      "bottom" : "620_min_x_a_64_post_scale_shift",
      "alpha" : -6,
      "operation" : 25,
      "weights" : {

      },
      "fused_relu" : 0,
      "debug_info" : "Clip_37_min_minus_x_minus_b",
      "top" : "620_min_minus_x_minus_b",
      "type" : "elementwise",
      "name" : "Clip_37_min_minus_x_minus_b",
      "beta" : 0
    },
    {
      "alpha" : -1,
      "bottom" : "620_min_minus_x_minus_b",
      "weights" : {

      },
      "mode" : 6,
      "debug_info" : "Clip_37",
      "top" : "428",
      "type" : "activation",
      "name" : "Clip_37",
      "beta" : 0
    },
    {
      "pad_r" : 0,
      "fused_relu" : 0,
      "fused_tanh" : 0,
      "debug_info" : "Conv_38",
      "pad_fill_mode" : 0,
      "pad_b" : 0,
      "pad_l" : 0,
      "top" : "623",
      "K" : 192,
      "blob_biases" : 75,
      "name" : "Conv_38",
      "has_batch_norm" : 0,
      "type" : "convolution",
      "n_groups" : 1,
      "pad_t" : 0,
      "has_biases" : 1,
      "C" : 32,
      "bottom" : "428",
      "weights" : {

      },
      "Nx" : 1,
      "pad_mode" : 0,
      "pad_value" : 0,
      "Ny" : 1,
      "n_parallel" : 1,
      "blob_weights_f16" : 77
    },
    {
      "bottom" : "422,623",
      "alpha" : 1,
      "operation" : 0,
      "weights" : {

      },
      "fused_relu" : 0,
      "debug_info" : "Add_39",
      "top" : "431",
      "type" : "elementwise",
      "name" : "Add_39",
      "beta" : 0
    },
    {
      "pad_r" : 0,
      "fused_relu" : 0,
      "fused_tanh" : 0,
      "debug_info" : "Conv_40",
      "pad_fill_mode" : 0,
      "pad_b" : 0,
      "pad_l" : 0,
      "top" : "626",
      "K" : 32,
      "blob_biases" : 79,
      "name" : "Conv_40",
      "has_batch_norm" : 0,
      "type" : "convolution",
      "n_groups" : 1,
      "pad_t" : 0,
      "has_biases" : 1,
      "C" : 192,
      "bottom" : "431",
      "weights" : {

      },
      "Nx" : 1,
      "pad_mode" : 0,
      "pad_value" : 0,
      "Ny" : 1,
      "n_parallel" : 1,
      "blob_weights_f16" : 81
    },
    {
      "bottom" : "626",
      "alpha" : 0,
      "operation" : 25,
      "weights" : {

      },
      "fused_relu" : 0,
      "debug_info" : "Clip_41_min_x_a",
      "top" : "626_min_x_a",
      "type" : "elementwise",
      "name" : "Clip_41_min_x_a",
      "beta" : 0
    },
    {
      "bottom" : "626_min_x_a",
      "alpha" : -1,
      "operation" : 1,
      "weights" : {

      },
      "fused_relu" : 0,
      "debug_info" : "Clip_41_min_minus_x_minus_b",
      "top" : "626_min_x_a_70_post_scale",
      "type" : "elementwise",
      "name" : "Clip_41_min_minus_x_minus_b_scale",
      "beta" : 0
    },
    {
      "bottom" : "626_min_x_a_70_post_scale",
      "alpha" : 0,
      "operation" : 0,
      "weights" : {

      },
      "fused_relu" : 0,
      "debug_info" : "Clip_41_min_minus_x_minus_b",
      "top" : "626_min_x_a_70_post_scale_shift",
      "type" : "elementwise",
      "name" : "Clip_41_min_minus_x_minus_b_shift",
      "beta" : 0
    },
    {
      "bottom" : "626_min_x_a_70_post_scale_shift",
      "alpha" : -6,
      "operation" : 25,
      "weights" : {

      },
      "fused_relu" : 0,
      "debug_info" : "Clip_41_min_minus_x_minus_b",
      "top" : "626_min_minus_x_minus_b",
      "type" : "elementwise",
      "name" : "Clip_41_min_minus_x_minus_b",
      "beta" : 0
    },
    {
      "alpha" : -1,
      "bottom" : "626_min_minus_x_minus_b",
      "weights" : {

      },
      "mode" : 6,
      "debug_info" : "Clip_41",
      "top" : "434",
      "type" : "activation",
      "name" : "Clip_41",
      "beta" : 0
    },
    {
      "pad_r" : 1,
      "fused_relu" : 0,
      "fused_tanh" : 0,
      "debug_info" : "Conv_42",
      "pad_fill_mode" : 0,
      "pad_b" : 1,
      "pad_l" : 1,
      "top" : "629",
      "K" : 192,
      "blob_biases" : 83,
      "stride_x" : 2,
      "name" : "Conv_42",
      "has_batch_norm" : 0,
      "type" : "convolution",
      "n_groups" : 192,
      "pad_t" : 1,
      "stride_y" : 2,
      "has_biases" : 1,
      "C" : 192,
      "bottom" : "434",
      "weights" : {

      },
      "Nx" : 3,
      "pad_mode" : 0,
      "pad_value" : 0,
      "Ny" : 3,
      "n_parallel" : 1,
      "blob_weights_f16" : 85
    },
    {
      "bottom" : "629",
      "alpha" : 0,
      "operation" : 25,
      "weights" : {

      },
      "fused_relu" : 0,
      "debug_info" : "Clip_43_min_x_a",
      "top" : "629_min_x_a",
      "type" : "elementwise",
      "name" : "Clip_43_min_x_a",
      "beta" : 0
    },
    {
      "bottom" : "629_min_x_a",
      "alpha" : -1,
      "operation" : 1,
      "weights" : {

      },
      "fused_relu" : 0,
      "debug_info" : "Clip_43_min_minus_x_minus_b",
      "top" : "629_min_x_a_74_post_scale",
      "type" : "elementwise",
      "name" : "Clip_43_min_minus_x_minus_b_scale",
      "beta" : 0
    },
    {
      "bottom" : "629_min_x_a_74_post_scale",
      "alpha" : 0,
      "operation" : 0,
      "weights" : {

      },
      "fused_relu" : 0,
      "debug_info" : "Clip_43_min_minus_x_minus_b",
      "top" : "629_min_x_a_74_post_scale_shift",
      "type" : "elementwise",
      "name" : "Clip_43_min_minus_x_minus_b_shift",
      "beta" : 0
    },
    {
      "bottom" : "629_min_x_a_74_post_scale_shift",
      "alpha" : -6,
      "operation" : 25,
      "weights" : {

      },
      "fused_relu" : 0,
      "debug_info" : "Clip_43_min_minus_x_minus_b",
      "top" : "629_min_minus_x_minus_b",
      "type" : "elementwise",
      "name" : "Clip_43_min_minus_x_minus_b",
      "beta" : 0
    },
    {
      "alpha" : -1,
      "bottom" : "629_min_minus_x_minus_b",
      "weights" : {

      },
      "mode" : 6,
      "debug_info" : "Clip_43",
      "top" : "437",
      "type" : "activation",
      "name" : "Clip_43",
      "beta" : 0
    },
    {
      "pad_r" : 0,
      "fused_relu" : 0,
      "fused_tanh" : 0,
      "debug_info" : "Conv_44",
      "pad_fill_mode" : 0,
      "pad_b" : 0,
      "pad_l" : 0,
      "top" : "632",
      "K" : 192,
      "blob_biases" : 87,
      "name" : "Conv_44",
      "has_batch_norm" : 0,
      "type" : "convolution",
      "n_groups" : 1,
      "pad_t" : 0,
      "has_biases" : 1,
      "C" : 64,
      "bottom" : "437",
      "weights" : {

      },
      "Nx" : 1,
      "pad_mode" : 0,
      "pad_value" : 0,
      "Ny" : 1,
      "n_parallel" : 1,
      "blob_weights_f16" : 89
    },
    {
      "pad_r" : 0,
      "fused_relu" : 0,
      "fused_tanh" : 0,
      "debug_info" : "Conv_45",
      "pad_fill_mode" : 0,
      "pad_b" : 0,
      "pad_l" : 0,
      "top" : "635",
      "K" : 64,
      "blob_biases" : 91,
      "name" : "Conv_45",
      "has_batch_norm" : 0,
      "type" : "convolution",
      "n_groups" : 1,
      "pad_t" : 0,
      "has_biases" : 1,
      "C" : 384,
      "bottom" : "632",
      "weights" : {

      },
      "Nx" : 1,
      "pad_mode" : 0,
      "pad_value" : 0,
      "Ny" : 1,
      "n_parallel" : 1,
      "blob_weights_f16" : 93
    },
    {
      "bottom" : "635",
      "alpha" : 0,
      "operation" : 25,
      "weights" : {

      },
      "fused_relu" : 0,
      "debug_info" : "Clip_46_min_x_a",
      "top" : "635_min_x_a",
      "type" : "elementwise",
      "name" : "Clip_46_min_x_a",
      "beta" : 0
    },
    {
      "bottom" : "635_min_x_a",
      "alpha" : -1,
      "operation" : 1,
      "weights" : {

      },
      "fused_relu" : 0,
      "debug_info" : "Clip_46_min_minus_x_minus_b",
      "top" : "635_min_x_a_79_post_scale",
      "type" : "elementwise",
      "name" : "Clip_46_min_minus_x_minus_b_scale",
      "beta" : 0
    },
    {
      "bottom" : "635_min_x_a_79_post_scale",
      "alpha" : 0,
      "operation" : 0,
      "weights" : {

      },
      "fused_relu" : 0,
      "debug_info" : "Clip_46_min_minus_x_minus_b",
      "top" : "635_min_x_a_79_post_scale_shift",
      "type" : "elementwise",
      "name" : "Clip_46_min_minus_x_minus_b_shift",
      "beta" : 0
    },
    {
      "bottom" : "635_min_x_a_79_post_scale_shift",
      "alpha" : -6,
      "operation" : 25,
      "weights" : {

      },
      "fused_relu" : 0,
      "debug_info" : "Clip_46_min_minus_x_minus_b",
      "top" : "635_min_minus_x_minus_b",
      "type" : "elementwise",
      "name" : "Clip_46_min_minus_x_minus_b",
      "beta" : 0
    },
    {
      "alpha" : -1,
      "bottom" : "635_min_minus_x_minus_b",
      "weights" : {

      },
      "mode" : 6,
      "debug_info" : "Clip_46",
      "top" : "442",
      "type" : "activation",
      "name" : "Clip_46",
      "beta" : 0
    },
    {
      "pad_r" : 1,
      "fused_relu" : 0,
      "fused_tanh" : 0,
      "debug_info" : "Conv_47",
      "pad_fill_mode" : 0,
      "pad_b" : 1,
      "pad_l" : 1,
      "top" : "638",
      "K" : 384,
      "blob_biases" : 95,
      "name" : "Conv_47",
      "has_batch_norm" : 0,
      "type" : "convolution",
      "n_groups" : 384,
      "pad_t" : 1,
      "has_biases" : 1,
      "C" : 384,
      "bottom" : "442",
      "weights" : {

      },
      "Nx" : 3,
      "pad_mode" : 0,
      "pad_value" : 0,
      "Ny" : 3,
      "n_parallel" : 1,
      "blob_weights_f16" : 97
    },
    {
      "bottom" : "638",
      "alpha" : 0,
      "operation" : 25,
      "weights" : {

      },
      "fused_relu" : 0,
      "debug_info" : "Clip_48_min_x_a",
      "top" : "638_min_x_a",
      "type" : "elementwise",
      "name" : "Clip_48_min_x_a",
      "beta" : 0
    },
    {
      "bottom" : "638_min_x_a",
      "alpha" : -1,
      "operation" : 1,
      "weights" : {

      },
      "fused_relu" : 0,
      "debug_info" : "Clip_48_min_minus_x_minus_b",
      "top" : "638_min_x_a_83_post_scale",
      "type" : "elementwise",
      "name" : "Clip_48_min_minus_x_minus_b_scale",
      "beta" : 0
    },
    {
      "bottom" : "638_min_x_a_83_post_scale",
      "alpha" : 0,
      "operation" : 0,
      "weights" : {

      },
      "fused_relu" : 0,
      "debug_info" : "Clip_48_min_minus_x_minus_b",
      "top" : "638_min_x_a_83_post_scale_shift",
      "type" : "elementwise",
      "name" : "Clip_48_min_minus_x_minus_b_shift",
      "beta" : 0
    },
    {
      "bottom" : "638_min_x_a_83_post_scale_shift",
      "alpha" : -6,
      "operation" : 25,
      "weights" : {

      },
      "fused_relu" : 0,
      "debug_info" : "Clip_48_min_minus_x_minus_b",
      "top" : "638_min_minus_x_minus_b",
      "type" : "elementwise",
      "name" : "Clip_48_min_minus_x_minus_b",
      "beta" : 0
    },
    {
      "alpha" : -1,
      "bottom" : "638_min_minus_x_minus_b",
      "weights" : {

      },
      "mode" : 6,
      "debug_info" : "Clip_48",
      "top" : "445",
      "type" : "activation",
      "name" : "Clip_48",
      "beta" : 0
    },
    {
      "pad_r" : 0,
      "fused_relu" : 0,
      "fused_tanh" : 0,
      "debug_info" : "Conv_49",
      "pad_fill_mode" : 0,
      "pad_b" : 0,
      "pad_l" : 0,
      "top" : "641",
      "K" : 384,
      "blob_biases" : 99,
      "name" : "Conv_49",
      "has_batch_norm" : 0,
      "type" : "convolution",
      "n_groups" : 1,
      "pad_t" : 0,
      "has_biases" : 1,
      "C" : 64,
      "bottom" : "445",
      "weights" : {

      },
      "Nx" : 1,
      "pad_mode" : 0,
      "pad_value" : 0,
      "Ny" : 1,
      "n_parallel" : 1,
      "blob_weights_f16" : 101
    },
    {
      "bottom" : "632,641",
      "alpha" : 1,
      "operation" : 0,
      "weights" : {

      },
      "fused_relu" : 0,
      "debug_info" : "Add_50",
      "top" : "448",
      "type" : "elementwise",
      "name" : "Add_50",
      "beta" : 0
    },
    {
      "pad_r" : 0,
      "fused_relu" : 0,
      "fused_tanh" : 0,
      "debug_info" : "Conv_51",
      "pad_fill_mode" : 0,
      "pad_b" : 0,
      "pad_l" : 0,
      "top" : "644",
      "K" : 64,
      "blob_biases" : 103,
      "name" : "Conv_51",
      "has_batch_norm" : 0,
      "type" : "convolution",
      "n_groups" : 1,
      "pad_t" : 0,
      "has_biases" : 1,
      "C" : 384,
      "bottom" : "448",
      "weights" : {

      },
      "Nx" : 1,
      "pad_mode" : 0,
      "pad_value" : 0,
      "Ny" : 1,
      "n_parallel" : 1,
      "blob_weights_f16" : 105
    },
    {
      "bottom" : "644",
      "alpha" : 0,
      "operation" : 25,
      "weights" : {

      },
      "fused_relu" : 0,
      "debug_info" : "Clip_52_min_x_a",
      "top" : "644_min_x_a",
      "type" : "elementwise",
      "name" : "Clip_52_min_x_a",
      "beta" : 0
    },
    {
      "bottom" : "644_min_x_a",
      "alpha" : -1,
      "operation" : 1,
      "weights" : {

      },
      "fused_relu" : 0,
      "debug_info" : "Clip_52_min_minus_x_minus_b",
      "top" : "644_min_x_a_89_post_scale",
      "type" : "elementwise",
      "name" : "Clip_52_min_minus_x_minus_b_scale",
      "beta" : 0
    },
    {
      "bottom" : "644_min_x_a_89_post_scale",
      "alpha" : 0,
      "operation" : 0,
      "weights" : {

      },
      "fused_relu" : 0,
      "debug_info" : "Clip_52_min_minus_x_minus_b",
      "top" : "644_min_x_a_89_post_scale_shift",
      "type" : "elementwise",
      "name" : "Clip_52_min_minus_x_minus_b_shift",
      "beta" : 0
    },
    {
      "bottom" : "644_min_x_a_89_post_scale_shift",
      "alpha" : -6,
      "operation" : 25,
      "weights" : {

      },
      "fused_relu" : 0,
      "debug_info" : "Clip_52_min_minus_x_minus_b",
      "top" : "644_min_minus_x_minus_b",
      "type" : "elementwise",
      "name" : "Clip_52_min_minus_x_minus_b",
      "beta" : 0
    },
    {
      "alpha" : -1,
      "bottom" : "644_min_minus_x_minus_b",
      "weights" : {

      },
      "mode" : 6,
      "debug_info" : "Clip_52",
      "top" : "451",
      "type" : "activation",
      "name" : "Clip_52",
      "beta" : 0
    },
    {
      "pad_r" : 1,
      "fused_relu" : 0,
      "fused_tanh" : 0,
      "debug_info" : "Conv_53",
      "pad_fill_mode" : 0,
      "pad_b" : 1,
      "pad_l" : 1,
      "top" : "647",
      "K" : 384,
      "blob_biases" : 107,
      "name" : "Conv_53",
      "has_batch_norm" : 0,
      "type" : "convolution",
      "n_groups" : 384,
      "pad_t" : 1,
      "has_biases" : 1,
      "C" : 384,
      "bottom" : "451",
      "weights" : {

      },
      "Nx" : 3,
      "pad_mode" : 0,
      "pad_value" : 0,
      "Ny" : 3,
      "n_parallel" : 1,
      "blob_weights_f16" : 109
    },
    {
      "bottom" : "647",
      "alpha" : 0,
      "operation" : 25,
      "weights" : {

      },
      "fused_relu" : 0,
      "debug_info" : "Clip_54_min_x_a",
      "top" : "647_min_x_a",
      "type" : "elementwise",
      "name" : "Clip_54_min_x_a",
      "beta" : 0
    },
    {
      "bottom" : "647_min_x_a",
      "alpha" : -1,
      "operation" : 1,
      "weights" : {

      },
      "fused_relu" : 0,
      "debug_info" : "Clip_54_min_minus_x_minus_b",
      "top" : "647_min_x_a_93_post_scale",
      "type" : "elementwise",
      "name" : "Clip_54_min_minus_x_minus_b_scale",
      "beta" : 0
    },
    {
      "bottom" : "647_min_x_a_93_post_scale",
      "alpha" : 0,
      "operation" : 0,
      "weights" : {

      },
      "fused_relu" : 0,
      "debug_info" : "Clip_54_min_minus_x_minus_b",
      "top" : "647_min_x_a_93_post_scale_shift",
      "type" : "elementwise",
      "name" : "Clip_54_min_minus_x_minus_b_shift",
      "beta" : 0
    },
    {
      "bottom" : "647_min_x_a_93_post_scale_shift",
      "alpha" : -6,
      "operation" : 25,
      "weights" : {

      },
      "fused_relu" : 0,
      "debug_info" : "Clip_54_min_minus_x_minus_b",
      "top" : "647_min_minus_x_minus_b",
      "type" : "elementwise",
      "name" : "Clip_54_min_minus_x_minus_b",
      "beta" : 0
    },
    {
      "alpha" : -1,
      "bottom" : "647_min_minus_x_minus_b",
      "weights" : {

      },
      "mode" : 6,
      "debug_info" : "Clip_54",
      "top" : "454",
      "type" : "activation",
      "name" : "Clip_54",
      "beta" : 0
    },
    {
      "pad_r" : 0,
      "fused_relu" : 0,
      "fused_tanh" : 0,
      "debug_info" : "Conv_55",
      "pad_fill_mode" : 0,
      "pad_b" : 0,
      "pad_l" : 0,
      "top" : "650",
      "K" : 384,
      "blob_biases" : 111,
      "name" : "Conv_55",
      "has_batch_norm" : 0,
      "type" : "convolution",
      "n_groups" : 1,
      "pad_t" : 0,
      "has_biases" : 1,
      "C" : 64,
      "bottom" : "454",
      "weights" : {

      },
      "Nx" : 1,
      "pad_mode" : 0,
      "pad_value" : 0,
      "Ny" : 1,
      "n_parallel" : 1,
      "blob_weights_f16" : 113
    },
    {
      "bottom" : "448,650",
      "alpha" : 1,
      "operation" : 0,
      "weights" : {

      },
      "fused_relu" : 0,
      "debug_info" : "Add_56",
      "top" : "457",
      "type" : "elementwise",
      "name" : "Add_56",
      "beta" : 0
    },
    {
      "pad_r" : 0,
      "fused_relu" : 0,
      "fused_tanh" : 0,
      "debug_info" : "Conv_57",
      "pad_fill_mode" : 0,
      "pad_b" : 0,
      "pad_l" : 0,
      "top" : "653",
      "K" : 64,
      "blob_biases" : 115,
      "name" : "Conv_57",
      "has_batch_norm" : 0,
      "type" : "convolution",
      "n_groups" : 1,
      "pad_t" : 0,
      "has_biases" : 1,
      "C" : 384,
      "bottom" : "457",
      "weights" : {

      },
      "Nx" : 1,
      "pad_mode" : 0,
      "pad_value" : 0,
      "Ny" : 1,
      "n_parallel" : 1,
      "blob_weights_f16" : 117
    },
    {
      "bottom" : "653",
      "alpha" : 0,
      "operation" : 25,
      "weights" : {

      },
      "fused_relu" : 0,
      "debug_info" : "Clip_58_min_x_a",
      "top" : "653_min_x_a",
      "type" : "elementwise",
      "name" : "Clip_58_min_x_a",
      "beta" : 0
    },
    {
      "bottom" : "653_min_x_a",
      "alpha" : -1,
      "operation" : 1,
      "weights" : {

      },
      "fused_relu" : 0,
      "debug_info" : "Clip_58_min_minus_x_minus_b",
      "top" : "653_min_x_a_99_post_scale",
      "type" : "elementwise",
      "name" : "Clip_58_min_minus_x_minus_b_scale",
      "beta" : 0
    },
    {
      "bottom" : "653_min_x_a_99_post_scale",
      "alpha" : 0,
      "operation" : 0,
      "weights" : {

      },
      "fused_relu" : 0,
      "debug_info" : "Clip_58_min_minus_x_minus_b",
      "top" : "653_min_x_a_99_post_scale_shift",
      "type" : "elementwise",
      "name" : "Clip_58_min_minus_x_minus_b_shift",
      "beta" : 0
    },
    {
      "bottom" : "653_min_x_a_99_post_scale_shift",
      "alpha" : -6,
      "operation" : 25,
      "weights" : {

      },
      "fused_relu" : 0,
      "debug_info" : "Clip_58_min_minus_x_minus_b",
      "top" : "653_min_minus_x_minus_b",
      "type" : "elementwise",
      "name" : "Clip_58_min_minus_x_minus_b",
      "beta" : 0
    },
    {
      "alpha" : -1,
      "bottom" : "653_min_minus_x_minus_b",
      "weights" : {

      },
      "mode" : 6,
      "debug_info" : "Clip_58",
      "top" : "460",
      "type" : "activation",
      "name" : "Clip_58",
      "beta" : 0
    },
    {
      "pad_r" : 1,
      "fused_relu" : 0,
      "fused_tanh" : 0,
      "debug_info" : "Conv_59",
      "pad_fill_mode" : 0,
      "pad_b" : 1,
      "pad_l" : 1,
      "top" : "656",
      "K" : 384,
      "blob_biases" : 119,
      "name" : "Conv_59",
      "has_batch_norm" : 0,
      "type" : "convolution",
      "n_groups" : 384,
      "pad_t" : 1,
      "has_biases" : 1,
      "C" : 384,
      "bottom" : "460",
      "weights" : {

      },
      "Nx" : 3,
      "pad_mode" : 0,
      "pad_value" : 0,
      "Ny" : 3,
      "n_parallel" : 1,
      "blob_weights_f16" : 121
    },
    {
      "bottom" : "656",
      "alpha" : 0,
      "operation" : 25,
      "weights" : {

      },
      "fused_relu" : 0,
      "debug_info" : "Clip_60_min_x_a",
      "top" : "656_min_x_a",
      "type" : "elementwise",
      "name" : "Clip_60_min_x_a",
      "beta" : 0
    },
    {
      "bottom" : "656_min_x_a",
      "alpha" : -1,
      "operation" : 1,
      "weights" : {

      },
      "fused_relu" : 0,
      "debug_info" : "Clip_60_min_minus_x_minus_b",
      "top" : "656_min_x_a_103_post_scale",
      "type" : "elementwise",
      "name" : "Clip_60_min_minus_x_minus_b_scale",
      "beta" : 0
    },
    {
      "bottom" : "656_min_x_a_103_post_scale",
      "alpha" : 0,
      "operation" : 0,
      "weights" : {

      },
      "fused_relu" : 0,
      "debug_info" : "Clip_60_min_minus_x_minus_b",
      "top" : "656_min_x_a_103_post_scale_shift",
      "type" : "elementwise",
      "name" : "Clip_60_min_minus_x_minus_b_shift",
      "beta" : 0
    },
    {
      "bottom" : "656_min_x_a_103_post_scale_shift",
      "alpha" : -6,
      "operation" : 25,
      "weights" : {

      },
      "fused_relu" : 0,
      "debug_info" : "Clip_60_min_minus_x_minus_b",
      "top" : "656_min_minus_x_minus_b",
      "type" : "elementwise",
      "name" : "Clip_60_min_minus_x_minus_b",
      "beta" : 0
    },
    {
      "alpha" : -1,
      "bottom" : "656_min_minus_x_minus_b",
      "weights" : {

      },
      "mode" : 6,
      "debug_info" : "Clip_60",
      "top" : "463",
      "type" : "activation",
      "name" : "Clip_60",
      "beta" : 0
    },
    {
      "pad_r" : 0,
      "fused_relu" : 0,
      "fused_tanh" : 0,
      "debug_info" : "Conv_61",
      "pad_fill_mode" : 0,
      "pad_b" : 0,
      "pad_l" : 0,
      "top" : "659",
      "K" : 384,
      "blob_biases" : 123,
      "name" : "Conv_61",
      "has_batch_norm" : 0,
      "type" : "convolution",
      "n_groups" : 1,
      "pad_t" : 0,
      "has_biases" : 1,
      "C" : 64,
      "bottom" : "463",
      "weights" : {

      },
      "Nx" : 1,
      "pad_mode" : 0,
      "pad_value" : 0,
      "Ny" : 1,
      "n_parallel" : 1,
      "blob_weights_f16" : 125
    },
    {
      "bottom" : "457,659",
      "alpha" : 1,
      "operation" : 0,
      "weights" : {

      },
      "fused_relu" : 0,
      "debug_info" : "Add_62",
      "top" : "466",
      "type" : "elementwise",
      "name" : "Add_62",
      "beta" : 0
    },
    {
      "pad_r" : 0,
      "fused_relu" : 0,
      "fused_tanh" : 0,
      "debug_info" : "Conv_63",
      "pad_fill_mode" : 0,
      "pad_b" : 0,
      "pad_l" : 0,
      "top" : "662",
      "K" : 64,
      "blob_biases" : 127,
      "name" : "Conv_63",
      "has_batch_norm" : 0,
      "type" : "convolution",
      "n_groups" : 1,
      "pad_t" : 0,
      "has_biases" : 1,
      "C" : 384,
      "bottom" : "466",
      "weights" : {

      },
      "Nx" : 1,
      "pad_mode" : 0,
      "pad_value" : 0,
      "Ny" : 1,
      "n_parallel" : 1,
      "blob_weights_f16" : 129
    },
    {
      "bottom" : "662",
      "alpha" : 0,
      "operation" : 25,
      "weights" : {

      },
      "fused_relu" : 0,
      "debug_info" : "Clip_64_min_x_a",
      "top" : "662_min_x_a",
      "type" : "elementwise",
      "name" : "Clip_64_min_x_a",
      "beta" : 0
    },
    {
      "bottom" : "662_min_x_a",
      "alpha" : -1,
      "operation" : 1,
      "weights" : {

      },
      "fused_relu" : 0,
      "debug_info" : "Clip_64_min_minus_x_minus_b",
      "top" : "662_min_x_a_109_post_scale",
      "type" : "elementwise",
      "name" : "Clip_64_min_minus_x_minus_b_scale",
      "beta" : 0
    },
    {
      "bottom" : "662_min_x_a_109_post_scale",
      "alpha" : 0,
      "operation" : 0,
      "weights" : {

      },
      "fused_relu" : 0,
      "debug_info" : "Clip_64_min_minus_x_minus_b",
      "top" : "662_min_x_a_109_post_scale_shift",
      "type" : "elementwise",
      "name" : "Clip_64_min_minus_x_minus_b_shift",
      "beta" : 0
    },
    {
      "bottom" : "662_min_x_a_109_post_scale_shift",
      "alpha" : -6,
      "operation" : 25,
      "weights" : {

      },
      "fused_relu" : 0,
      "debug_info" : "Clip_64_min_minus_x_minus_b",
      "top" : "662_min_minus_x_minus_b",
      "type" : "elementwise",
      "name" : "Clip_64_min_minus_x_minus_b",
      "beta" : 0
    },
    {
      "alpha" : -1,
      "bottom" : "662_min_minus_x_minus_b",
      "weights" : {

      },
      "mode" : 6,
      "debug_info" : "Clip_64",
      "top" : "469",
      "type" : "activation",
      "name" : "Clip_64",
      "beta" : 0
    },
    {
      "pad_r" : 1,
      "fused_relu" : 0,
      "fused_tanh" : 0,
      "debug_info" : "Conv_65",
      "pad_fill_mode" : 0,
      "pad_b" : 1,
      "pad_l" : 1,
      "top" : "665",
      "K" : 384,
      "blob_biases" : 131,
      "name" : "Conv_65",
      "has_batch_norm" : 0,
      "type" : "convolution",
      "n_groups" : 384,
      "pad_t" : 1,
      "has_biases" : 1,
      "C" : 384,
      "bottom" : "469",
      "weights" : {

      },
      "Nx" : 3,
      "pad_mode" : 0,
      "pad_value" : 0,
      "Ny" : 3,
      "n_parallel" : 1,
      "blob_weights_f16" : 133
    },
    {
      "bottom" : "665",
      "alpha" : 0,
      "operation" : 25,
      "weights" : {

      },
      "fused_relu" : 0,
      "debug_info" : "Clip_66_min_x_a",
      "top" : "665_min_x_a",
      "type" : "elementwise",
      "name" : "Clip_66_min_x_a",
      "beta" : 0
    },
    {
      "bottom" : "665_min_x_a",
      "alpha" : -1,
      "operation" : 1,
      "weights" : {

      },
      "fused_relu" : 0,
      "debug_info" : "Clip_66_min_minus_x_minus_b",
      "top" : "665_min_x_a_113_post_scale",
      "type" : "elementwise",
      "name" : "Clip_66_min_minus_x_minus_b_scale",
      "beta" : 0
    },
    {
      "bottom" : "665_min_x_a_113_post_scale",
      "alpha" : 0,
      "operation" : 0,
      "weights" : {

      },
      "fused_relu" : 0,
      "debug_info" : "Clip_66_min_minus_x_minus_b",
      "top" : "665_min_x_a_113_post_scale_shift",
      "type" : "elementwise",
      "name" : "Clip_66_min_minus_x_minus_b_shift",
      "beta" : 0
    },
    {
      "bottom" : "665_min_x_a_113_post_scale_shift",
      "alpha" : -6,
      "operation" : 25,
      "weights" : {

      },
      "fused_relu" : 0,
      "debug_info" : "Clip_66_min_minus_x_minus_b",
      "top" : "665_min_minus_x_minus_b",
      "type" : "elementwise",
      "name" : "Clip_66_min_minus_x_minus_b",
      "beta" : 0
    },
    {
      "alpha" : -1,
      "bottom" : "665_min_minus_x_minus_b",
      "weights" : {

      },
      "mode" : 6,
      "debug_info" : "Clip_66",
      "top" : "472",
      "type" : "activation",
      "name" : "Clip_66",
      "beta" : 0
    },
    {
      "pad_r" : 0,
      "fused_relu" : 0,
      "fused_tanh" : 0,
      "debug_info" : "Conv_67",
      "pad_fill_mode" : 0,
      "pad_b" : 0,
      "pad_l" : 0,
      "top" : "668",
      "K" : 384,
      "blob_biases" : 135,
      "name" : "Conv_67",
      "has_batch_norm" : 0,
      "type" : "convolution",
      "n_groups" : 1,
      "pad_t" : 0,
      "has_biases" : 1,
      "C" : 96,
      "bottom" : "472",
      "weights" : {

      },
      "Nx" : 1,
      "pad_mode" : 0,
      "pad_value" : 0,
      "Ny" : 1,
      "n_parallel" : 1,
      "blob_weights_f16" : 137
    },
    {
      "pad_r" : 0,
      "fused_relu" : 0,
      "fused_tanh" : 0,
      "debug_info" : "Conv_68",
      "pad_fill_mode" : 0,
      "pad_b" : 0,
      "pad_l" : 0,
      "top" : "671",
      "K" : 96,
      "blob_biases" : 139,
      "name" : "Conv_68",
      "has_batch_norm" : 0,
      "type" : "convolution",
      "n_groups" : 1,
      "pad_t" : 0,
      "has_biases" : 1,
      "C" : 576,
      "bottom" : "668",
      "weights" : {

      },
      "Nx" : 1,
      "pad_mode" : 0,
      "pad_value" : 0,
      "Ny" : 1,
      "n_parallel" : 1,
      "blob_weights_f16" : 141
    },
    {
      "bottom" : "671",
      "alpha" : 0,
      "operation" : 25,
      "weights" : {

      },
      "fused_relu" : 0,
      "debug_info" : "Clip_69_min_x_a",
      "top" : "671_min_x_a",
      "type" : "elementwise",
      "name" : "Clip_69_min_x_a",
      "beta" : 0
    },
    {
      "bottom" : "671_min_x_a",
      "alpha" : -1,
      "operation" : 1,
      "weights" : {

      },
      "fused_relu" : 0,
      "debug_info" : "Clip_69_min_minus_x_minus_b",
      "top" : "671_min_x_a_118_post_scale",
      "type" : "elementwise",
      "name" : "Clip_69_min_minus_x_minus_b_scale",
      "beta" : 0
    },
    {
      "bottom" : "671_min_x_a_118_post_scale",
      "alpha" : 0,
      "operation" : 0,
      "weights" : {

      },
      "fused_relu" : 0,
      "debug_info" : "Clip_69_min_minus_x_minus_b",
      "top" : "671_min_x_a_118_post_scale_shift",
      "type" : "elementwise",
      "name" : "Clip_69_min_minus_x_minus_b_shift",
      "beta" : 0
    },
    {
      "bottom" : "671_min_x_a_118_post_scale_shift",
      "alpha" : -6,
      "operation" : 25,
      "weights" : {

      },
      "fused_relu" : 0,
      "debug_info" : "Clip_69_min_minus_x_minus_b",
      "top" : "671_min_minus_x_minus_b",
      "type" : "elementwise",
      "name" : "Clip_69_min_minus_x_minus_b",
      "beta" : 0
    },
    {
      "alpha" : -1,
      "bottom" : "671_min_minus_x_minus_b",
      "weights" : {

      },
      "mode" : 6,
      "debug_info" : "Clip_69",
      "top" : "477",
      "type" : "activation",
      "name" : "Clip_69",
      "beta" : 0
    },
    {
      "pad_r" : 1,
      "fused_relu" : 0,
      "fused_tanh" : 0,
      "debug_info" : "Conv_70",
      "pad_fill_mode" : 0,
      "pad_b" : 1,
      "pad_l" : 1,
      "top" : "674",
      "K" : 576,
      "blob_biases" : 143,
      "name" : "Conv_70",
      "has_batch_norm" : 0,
      "type" : "convolution",
      "n_groups" : 576,
      "pad_t" : 1,
      "has_biases" : 1,
      "C" : 576,
      "bottom" : "477",
      "weights" : {

      },
      "Nx" : 3,
      "pad_mode" : 0,
      "pad_value" : 0,
      "Ny" : 3,
      "n_parallel" : 1,
      "blob_weights_f16" : 145
    },
    {
      "bottom" : "674",
      "alpha" : 0,
      "operation" : 25,
      "weights" : {

      },
      "fused_relu" : 0,
      "debug_info" : "Clip_71_min_x_a",
      "top" : "674_min_x_a",
      "type" : "elementwise",
      "name" : "Clip_71_min_x_a",
      "beta" : 0
    },
    {
      "bottom" : "674_min_x_a",
      "alpha" : -1,
      "operation" : 1,
      "weights" : {

      },
      "fused_relu" : 0,
      "debug_info" : "Clip_71_min_minus_x_minus_b",
      "top" : "674_min_x_a_122_post_scale",
      "type" : "elementwise",
      "name" : "Clip_71_min_minus_x_minus_b_scale",
      "beta" : 0
    },
    {
      "bottom" : "674_min_x_a_122_post_scale",
      "alpha" : 0,
      "operation" : 0,
      "weights" : {

      },
      "fused_relu" : 0,
      "debug_info" : "Clip_71_min_minus_x_minus_b",
      "top" : "674_min_x_a_122_post_scale_shift",
      "type" : "elementwise",
      "name" : "Clip_71_min_minus_x_minus_b_shift",
      "beta" : 0
    },
    {
      "bottom" : "674_min_x_a_122_post_scale_shift",
      "alpha" : -6,
      "operation" : 25,
      "weights" : {

      },
      "fused_relu" : 0,
      "debug_info" : "Clip_71_min_minus_x_minus_b",
      "top" : "674_min_minus_x_minus_b",
      "type" : "elementwise",
      "name" : "Clip_71_min_minus_x_minus_b",
      "beta" : 0
    },
    {
      "alpha" : -1,
      "bottom" : "674_min_minus_x_minus_b",
      "weights" : {

      },
      "mode" : 6,
      "debug_info" : "Clip_71",
      "top" : "480",
      "type" : "activation",
      "name" : "Clip_71",
      "beta" : 0
    },
    {
      "pad_r" : 0,
      "fused_relu" : 0,
      "fused_tanh" : 0,
      "debug_info" : "Conv_72",
      "pad_fill_mode" : 0,
      "pad_b" : 0,
      "pad_l" : 0,
      "top" : "677",
      "K" : 576,
      "blob_biases" : 147,
      "name" : "Conv_72",
      "has_batch_norm" : 0,
      "type" : "convolution",
      "n_groups" : 1,
      "pad_t" : 0,
      "has_biases" : 1,
      "C" : 96,
      "bottom" : "480",
      "weights" : {

      },
      "Nx" : 1,
      "pad_mode" : 0,
      "pad_value" : 0,
      "Ny" : 1,
      "n_parallel" : 1,
      "blob_weights_f16" : 149
    },
    {
      "bottom" : "668,677",
      "alpha" : 1,
      "operation" : 0,
      "weights" : {

      },
      "fused_relu" : 0,
      "debug_info" : "Add_73",
      "top" : "483",
      "type" : "elementwise",
      "name" : "Add_73",
      "beta" : 0
    },
    {
      "pad_r" : 0,
      "fused_relu" : 0,
      "fused_tanh" : 0,
      "debug_info" : "Conv_74",
      "pad_fill_mode" : 0,
      "pad_b" : 0,
      "pad_l" : 0,
      "top" : "680",
      "K" : 96,
      "blob_biases" : 151,
      "name" : "Conv_74",
      "has_batch_norm" : 0,
      "type" : "convolution",
      "n_groups" : 1,
      "pad_t" : 0,
      "has_biases" : 1,
      "C" : 576,
      "bottom" : "483",
      "weights" : {

      },
      "Nx" : 1,
      "pad_mode" : 0,
      "pad_value" : 0,
      "Ny" : 1,
      "n_parallel" : 1,
      "blob_weights_f16" : 153
    },
    {
      "bottom" : "680",
      "alpha" : 0,
      "operation" : 25,
      "weights" : {

      },
      "fused_relu" : 0,
      "debug_info" : "Clip_75_min_x_a",
      "top" : "680_min_x_a",
      "type" : "elementwise",
      "name" : "Clip_75_min_x_a",
      "beta" : 0
    },
    {
      "bottom" : "680_min_x_a",
      "alpha" : -1,
      "operation" : 1,
      "weights" : {

      },
      "fused_relu" : 0,
      "debug_info" : "Clip_75_min_minus_x_minus_b",
      "top" : "680_min_x_a_128_post_scale",
      "type" : "elementwise",
      "name" : "Clip_75_min_minus_x_minus_b_scale",
      "beta" : 0
    },
    {
      "bottom" : "680_min_x_a_128_post_scale",
      "alpha" : 0,
      "operation" : 0,
      "weights" : {

      },
      "fused_relu" : 0,
      "debug_info" : "Clip_75_min_minus_x_minus_b",
      "top" : "680_min_x_a_128_post_scale_shift",
      "type" : "elementwise",
      "name" : "Clip_75_min_minus_x_minus_b_shift",
      "beta" : 0
    },
    {
      "bottom" : "680_min_x_a_128_post_scale_shift",
      "alpha" : -6,
      "operation" : 25,
      "weights" : {

      },
      "fused_relu" : 0,
      "debug_info" : "Clip_75_min_minus_x_minus_b",
      "top" : "680_min_minus_x_minus_b",
      "type" : "elementwise",
      "name" : "Clip_75_min_minus_x_minus_b",
      "beta" : 0
    },
    {
      "alpha" : -1,
      "bottom" : "680_min_minus_x_minus_b",
      "weights" : {

      },
      "mode" : 6,
      "debug_info" : "Clip_75",
      "top" : "486",
      "type" : "activation",
      "name" : "Clip_75",
      "beta" : 0
    },
    {
      "pad_r" : 1,
      "fused_relu" : 0,
      "fused_tanh" : 0,
      "debug_info" : "Conv_76",
      "pad_fill_mode" : 0,
      "pad_b" : 1,
      "pad_l" : 1,
      "top" : "683",
      "K" : 576,
      "blob_biases" : 155,
      "name" : "Conv_76",
      "has_batch_norm" : 0,
      "type" : "convolution",
      "n_groups" : 576,
      "pad_t" : 1,
      "has_biases" : 1,
      "C" : 576,
      "bottom" : "486",
      "weights" : {

      },
      "Nx" : 3,
      "pad_mode" : 0,
      "pad_value" : 0,
      "Ny" : 3,
      "n_parallel" : 1,
      "blob_weights_f16" : 157
    },
    {
      "bottom" : "683",
      "alpha" : 0,
      "operation" : 25,
      "weights" : {

      },
      "fused_relu" : 0,
      "debug_info" : "Clip_77_min_x_a",
      "top" : "683_min_x_a",
      "type" : "elementwise",
      "name" : "Clip_77_min_x_a",
      "beta" : 0
    },
    {
      "bottom" : "683_min_x_a",
      "alpha" : -1,
      "operation" : 1,
      "weights" : {

      },
      "fused_relu" : 0,
      "debug_info" : "Clip_77_min_minus_x_minus_b",
      "top" : "683_min_x_a_132_post_scale",
      "type" : "elementwise",
      "name" : "Clip_77_min_minus_x_minus_b_scale",
      "beta" : 0
    },
    {
      "bottom" : "683_min_x_a_132_post_scale",
      "alpha" : 0,
      "operation" : 0,
      "weights" : {

      },
      "fused_relu" : 0,
      "debug_info" : "Clip_77_min_minus_x_minus_b",
      "top" : "683_min_x_a_132_post_scale_shift",
      "type" : "elementwise",
      "name" : "Clip_77_min_minus_x_minus_b_shift",
      "beta" : 0
    },
    {
      "bottom" : "683_min_x_a_132_post_scale_shift",
      "alpha" : -6,
      "operation" : 25,
      "weights" : {

      },
      "fused_relu" : 0,
      "debug_info" : "Clip_77_min_minus_x_minus_b",
      "top" : "683_min_minus_x_minus_b",
      "type" : "elementwise",
      "name" : "Clip_77_min_minus_x_minus_b",
      "beta" : 0
    },
    {
      "alpha" : -1,
      "bottom" : "683_min_minus_x_minus_b",
      "weights" : {

      },
      "mode" : 6,
      "debug_info" : "Clip_77",
      "top" : "489",
      "type" : "activation",
      "name" : "Clip_77",
      "beta" : 0
    },
    {
      "pad_r" : 0,
      "fused_relu" : 0,
      "fused_tanh" : 0,
      "debug_info" : "Conv_78",
      "pad_fill_mode" : 0,
      "pad_b" : 0,
      "pad_l" : 0,
      "top" : "686",
      "K" : 576,
      "blob_biases" : 159,
      "name" : "Conv_78",
      "has_batch_norm" : 0,
      "type" : "convolution",
      "n_groups" : 1,
      "pad_t" : 0,
      "has_biases" : 1,
      "C" : 96,
      "bottom" : "489",
      "weights" : {

      },
      "Nx" : 1,
      "pad_mode" : 0,
      "pad_value" : 0,
      "Ny" : 1,
      "n_parallel" : 1,
      "blob_weights_f16" : 161
    },
    {
      "bottom" : "483,686",
      "alpha" : 1,
      "operation" : 0,
      "weights" : {

      },
      "fused_relu" : 0,
      "debug_info" : "Add_79",
      "top" : "492",
      "type" : "elementwise",
      "name" : "Add_79",
      "beta" : 0
    },
    {
      "pad_r" : 0,
      "fused_relu" : 0,
      "fused_tanh" : 0,
      "debug_info" : "Conv_80",
      "pad_fill_mode" : 0,
      "pad_b" : 0,
      "pad_l" : 0,
      "top" : "689",
      "K" : 96,
      "blob_biases" : 163,
      "name" : "Conv_80",
      "has_batch_norm" : 0,
      "type" : "convolution",
      "n_groups" : 1,
      "pad_t" : 0,
      "has_biases" : 1,
      "C" : 576,
      "bottom" : "492",
      "weights" : {

      },
      "Nx" : 1,
      "pad_mode" : 0,
      "dilation_x" : 2,
      "pad_value" : 0,
      "Ny" : 1,
      "n_parallel" : 1,
      "dilation_y" : 2,
      "blob_weights_f16" : 165
    },
    {
      "bottom" : "689",
      "alpha" : 0,
      "operation" : 25,
      "weights" : {

      },
      "fused_relu" : 0,
      "debug_info" : "Clip_81_min_x_a",
      "top" : "689_min_x_a",
      "type" : "elementwise",
      "name" : "Clip_81_min_x_a",
      "beta" : 0
    },
    {
      "bottom" : "689_min_x_a",
      "alpha" : -1,
      "operation" : 1,
      "weights" : {

      },
      "fused_relu" : 0,
      "debug_info" : "Clip_81_min_minus_x_minus_b",
      "top" : "689_min_x_a_138_post_scale",
      "type" : "elementwise",
      "name" : "Clip_81_min_minus_x_minus_b_scale",
      "beta" : 0
    },
    {
      "bottom" : "689_min_x_a_138_post_scale",
      "alpha" : 0,
      "operation" : 0,
      "weights" : {

      },
      "fused_relu" : 0,
      "debug_info" : "Clip_81_min_minus_x_minus_b",
      "top" : "689_min_x_a_138_post_scale_shift",
      "type" : "elementwise",
      "name" : "Clip_81_min_minus_x_minus_b_shift",
      "beta" : 0
    },
    {
      "bottom" : "689_min_x_a_138_post_scale_shift",
      "alpha" : -6,
      "operation" : 25,
      "weights" : {

      },
      "fused_relu" : 0,
      "debug_info" : "Clip_81_min_minus_x_minus_b",
      "top" : "689_min_minus_x_minus_b",
      "type" : "elementwise",
      "name" : "Clip_81_min_minus_x_minus_b",
      "beta" : 0
    },
    {
      "alpha" : -1,
      "bottom" : "689_min_minus_x_minus_b",
      "weights" : {

      },
      "mode" : 6,
      "debug_info" : "Clip_81",
      "top" : "495",
      "type" : "activation",
      "name" : "Clip_81",
      "beta" : 0
    },
    {
      "pad_r" : 2,
      "fused_relu" : 0,
      "fused_tanh" : 0,
      "debug_info" : "Conv_82",
      "pad_fill_mode" : 0,
      "pad_b" : 2,
      "pad_l" : 2,
      "top" : "692",
      "K" : 576,
      "blob_biases" : 167,
      "name" : "Conv_82",
      "has_batch_norm" : 0,
      "type" : "convolution",
      "n_groups" : 576,
      "pad_t" : 2,
      "has_biases" : 1,
      "C" : 576,
      "bottom" : "495",
      "weights" : {

      },
      "Nx" : 3,
      "pad_mode" : 0,
      "dilation_x" : 2,
      "pad_value" : 0,
      "Ny" : 3,
      "n_parallel" : 1,
      "dilation_y" : 2,
      "blob_weights_f16" : 169
    },
    {
      "bottom" : "692",
      "alpha" : 0,
      "operation" : 25,
      "weights" : {

      },
      "fused_relu" : 0,
      "debug_info" : "Clip_83_min_x_a",
      "top" : "692_min_x_a",
      "type" : "elementwise",
      "name" : "Clip_83_min_x_a",
      "beta" : 0
    },
    {
      "bottom" : "692_min_x_a",
      "alpha" : -1,
      "operation" : 1,
      "weights" : {

      },
      "fused_relu" : 0,
      "debug_info" : "Clip_83_min_minus_x_minus_b",
      "top" : "692_min_x_a_142_post_scale",
      "type" : "elementwise",
      "name" : "Clip_83_min_minus_x_minus_b_scale",
      "beta" : 0
    },
    {
      "bottom" : "692_min_x_a_142_post_scale",
      "alpha" : 0,
      "operation" : 0,
      "weights" : {

      },
      "fused_relu" : 0,
      "debug_info" : "Clip_83_min_minus_x_minus_b",
      "top" : "692_min_x_a_142_post_scale_shift",
      "type" : "elementwise",
      "name" : "Clip_83_min_minus_x_minus_b_shift",
      "beta" : 0
    },
    {
      "bottom" : "692_min_x_a_142_post_scale_shift",
      "alpha" : -6,
      "operation" : 25,
      "weights" : {

      },
      "fused_relu" : 0,
      "debug_info" : "Clip_83_min_minus_x_minus_b",
      "top" : "692_min_minus_x_minus_b",
      "type" : "elementwise",
      "name" : "Clip_83_min_minus_x_minus_b",
      "beta" : 0
    },
    {
      "alpha" : -1,
      "bottom" : "692_min_minus_x_minus_b",
      "weights" : {

      },
      "mode" : 6,
      "debug_info" : "Clip_83",
      "top" : "498",
      "type" : "activation",
      "name" : "Clip_83",
      "beta" : 0
    },
    {
      "pad_r" : 0,
      "fused_relu" : 0,
      "fused_tanh" : 0,
      "debug_info" : "Conv_84",
      "pad_fill_mode" : 0,
      "pad_b" : 0,
      "pad_l" : 0,
      "top" : "695",
      "K" : 576,
      "blob_biases" : 171,
      "name" : "Conv_84",
      "has_batch_norm" : 0,
      "type" : "convolution",
      "n_groups" : 1,
      "pad_t" : 0,
      "has_biases" : 1,
      "C" : 160,
      "bottom" : "498",
      "weights" : {

      },
      "Nx" : 1,
      "pad_mode" : 0,
      "dilation_x" : 2,
      "pad_value" : 0,
      "Ny" : 1,
      "n_parallel" : 1,
      "dilation_y" : 2,
      "blob_weights_f16" : 173
    },
    {
      "pad_r" : 0,
      "fused_relu" : 0,
      "fused_tanh" : 0,
      "debug_info" : "Conv_85",
      "pad_fill_mode" : 0,
      "pad_b" : 0,
      "pad_l" : 0,
      "top" : "698",
      "K" : 160,
      "blob_biases" : 175,
      "name" : "Conv_85",
      "has_batch_norm" : 0,
      "type" : "convolution",
      "n_groups" : 1,
      "pad_t" : 0,
      "has_biases" : 1,
      "C" : 960,
      "bottom" : "695",
      "weights" : {

      },
      "Nx" : 1,
      "pad_mode" : 0,
      "dilation_x" : 2,
      "pad_value" : 0,
      "Ny" : 1,
      "n_parallel" : 1,
      "dilation_y" : 2,
      "blob_weights_f16" : 177
    },
    {
      "bottom" : "698",
      "alpha" : 0,
      "operation" : 25,
      "weights" : {

      },
      "fused_relu" : 0,
      "debug_info" : "Clip_86_min_x_a",
      "top" : "698_min_x_a",
      "type" : "elementwise",
      "name" : "Clip_86_min_x_a",
      "beta" : 0
    },
    {
      "bottom" : "698_min_x_a",
      "alpha" : -1,
      "operation" : 1,
      "weights" : {

      },
      "fused_relu" : 0,
      "debug_info" : "Clip_86_min_minus_x_minus_b",
      "top" : "698_min_x_a_147_post_scale",
      "type" : "elementwise",
      "name" : "Clip_86_min_minus_x_minus_b_scale",
      "beta" : 0
    },
    {
      "bottom" : "698_min_x_a_147_post_scale",
      "alpha" : 0,
      "operation" : 0,
      "weights" : {

      },
      "fused_relu" : 0,
      "debug_info" : "Clip_86_min_minus_x_minus_b",
      "top" : "698_min_x_a_147_post_scale_shift",
      "type" : "elementwise",
      "name" : "Clip_86_min_minus_x_minus_b_shift",
      "beta" : 0
    },
    {
      "bottom" : "698_min_x_a_147_post_scale_shift",
      "alpha" : -6,
      "operation" : 25,
      "weights" : {

      },
      "fused_relu" : 0,
      "debug_info" : "Clip_86_min_minus_x_minus_b",
      "top" : "698_min_minus_x_minus_b",
      "type" : "elementwise",
      "name" : "Clip_86_min_minus_x_minus_b",
      "beta" : 0
    },
    {
      "alpha" : -1,
      "bottom" : "698_min_minus_x_minus_b",
      "weights" : {

      },
      "mode" : 6,
      "debug_info" : "Clip_86",
      "top" : "503",
      "type" : "activation",
      "name" : "Clip_86",
      "beta" : 0
    },
    {
      "pad_r" : 2,
      "fused_relu" : 0,
      "fused_tanh" : 0,
      "debug_info" : "Conv_87",
      "pad_fill_mode" : 0,
      "pad_b" : 2,
      "pad_l" : 2,
      "top" : "701",
      "K" : 960,
      "blob_biases" : 179,
      "name" : "Conv_87",
      "has_batch_norm" : 0,
      "type" : "convolution",
      "n_groups" : 960,
      "pad_t" : 2,
      "has_biases" : 1,
      "C" : 960,
      "bottom" : "503",
      "weights" : {

      },
      "Nx" : 3,
      "pad_mode" : 0,
      "dilation_x" : 2,
      "pad_value" : 0,
      "Ny" : 3,
      "n_parallel" : 1,
      "dilation_y" : 2,
      "blob_weights_f16" : 181
    },
    {
      "bottom" : "701",
      "alpha" : 0,
      "operation" : 25,
      "weights" : {

      },
      "fused_relu" : 0,
      "debug_info" : "Clip_88_min_x_a",
      "top" : "701_min_x_a",
      "type" : "elementwise",
      "name" : "Clip_88_min_x_a",
      "beta" : 0
    },
    {
      "bottom" : "701_min_x_a",
      "alpha" : -1,
      "operation" : 1,
      "weights" : {

      },
      "fused_relu" : 0,
      "debug_info" : "Clip_88_min_minus_x_minus_b",
      "top" : "701_min_x_a_151_post_scale",
      "type" : "elementwise",
      "name" : "Clip_88_min_minus_x_minus_b_scale",
      "beta" : 0
    },
    {
      "bottom" : "701_min_x_a_151_post_scale",
      "alpha" : 0,
      "operation" : 0,
      "weights" : {

      },
      "fused_relu" : 0,
      "debug_info" : "Clip_88_min_minus_x_minus_b",
      "top" : "701_min_x_a_151_post_scale_shift",
      "type" : "elementwise",
      "name" : "Clip_88_min_minus_x_minus_b_shift",
      "beta" : 0
    },
    {
      "bottom" : "701_min_x_a_151_post_scale_shift",
      "alpha" : -6,
      "operation" : 25,
      "weights" : {

      },
      "fused_relu" : 0,
      "debug_info" : "Clip_88_min_minus_x_minus_b",
      "top" : "701_min_minus_x_minus_b",
      "type" : "elementwise",
      "name" : "Clip_88_min_minus_x_minus_b",
      "beta" : 0
    },
    {
      "alpha" : -1,
      "bottom" : "701_min_minus_x_minus_b",
      "weights" : {

      },
      "mode" : 6,
      "debug_info" : "Clip_88",
      "top" : "506",
      "type" : "activation",
      "name" : "Clip_88",
      "beta" : 0
    },
    {
      "pad_r" : 0,
      "fused_relu" : 0,
      "fused_tanh" : 0,
      "debug_info" : "Conv_89",
      "pad_fill_mode" : 0,
      "pad_b" : 0,
      "pad_l" : 0,
      "top" : "704",
      "K" : 960,
      "blob_biases" : 183,
      "name" : "Conv_89",
      "has_batch_norm" : 0,
      "type" : "convolution",
      "n_groups" : 1,
      "pad_t" : 0,
      "has_biases" : 1,
      "C" : 160,
      "bottom" : "506",
      "weights" : {

      },
      "Nx" : 1,
      "pad_mode" : 0,
      "dilation_x" : 2,
      "pad_value" : 0,
      "Ny" : 1,
      "n_parallel" : 1,
      "dilation_y" : 2,
      "blob_weights_f16" : 185
    },
    {
      "bottom" : "695,704",
      "alpha" : 1,
      "operation" : 0,
      "weights" : {

      },
      "fused_relu" : 0,
      "debug_info" : "Add_90",
      "top" : "509",
      "type" : "elementwise",
      "name" : "Add_90",
      "beta" : 0
    },
    {
      "pad_r" : 0,
      "fused_relu" : 0,
      "fused_tanh" : 0,
      "debug_info" : "Conv_91",
      "pad_fill_mode" : 0,
      "pad_b" : 0,
      "pad_l" : 0,
      "top" : "707",
      "K" : 160,
      "blob_biases" : 187,
      "name" : "Conv_91",
      "has_batch_norm" : 0,
      "type" : "convolution",
      "n_groups" : 1,
      "pad_t" : 0,
      "has_biases" : 1,
      "C" : 960,
      "bottom" : "509",
      "weights" : {

      },
      "Nx" : 1,
      "pad_mode" : 0,
      "dilation_x" : 2,
      "pad_value" : 0,
      "Ny" : 1,
      "n_parallel" : 1,
      "dilation_y" : 2,
      "blob_weights_f16" : 189
    },
    {
      "bottom" : "707",
      "alpha" : 0,
      "operation" : 25,
      "weights" : {

      },
      "fused_relu" : 0,
      "debug_info" : "Clip_92_min_x_a",
      "top" : "707_min_x_a",
      "type" : "elementwise",
      "name" : "Clip_92_min_x_a",
      "beta" : 0
    },
    {
      "bottom" : "707_min_x_a",
      "alpha" : -1,
      "operation" : 1,
      "weights" : {

      },
      "fused_relu" : 0,
      "debug_info" : "Clip_92_min_minus_x_minus_b",
      "top" : "707_min_x_a_157_post_scale",
      "type" : "elementwise",
      "name" : "Clip_92_min_minus_x_minus_b_scale",
      "beta" : 0
    },
    {
      "bottom" : "707_min_x_a_157_post_scale",
      "alpha" : 0,
      "operation" : 0,
      "weights" : {

      },
      "fused_relu" : 0,
      "debug_info" : "Clip_92_min_minus_x_minus_b",
      "top" : "707_min_x_a_157_post_scale_shift",
      "type" : "elementwise",
      "name" : "Clip_92_min_minus_x_minus_b_shift",
      "beta" : 0
    },
    {
      "bottom" : "707_min_x_a_157_post_scale_shift",
      "alpha" : -6,
      "operation" : 25,
      "weights" : {

      },
      "fused_relu" : 0,
      "debug_info" : "Clip_92_min_minus_x_minus_b",
      "top" : "707_min_minus_x_minus_b",
      "type" : "elementwise",
      "name" : "Clip_92_min_minus_x_minus_b",
      "beta" : 0
    },
    {
      "alpha" : -1,
      "bottom" : "707_min_minus_x_minus_b",
      "weights" : {

      },
      "mode" : 6,
      "debug_info" : "Clip_92",
      "top" : "512",
      "type" : "activation",
      "name" : "Clip_92",
      "beta" : 0
    },
    {
      "pad_r" : 2,
      "fused_relu" : 0,
      "fused_tanh" : 0,
      "debug_info" : "Conv_93",
      "pad_fill_mode" : 0,
      "pad_b" : 2,
      "pad_l" : 2,
      "top" : "710",
      "K" : 960,
      "blob_biases" : 191,
      "name" : "Conv_93",
      "has_batch_norm" : 0,
      "type" : "convolution",
      "n_groups" : 960,
      "pad_t" : 2,
      "has_biases" : 1,
      "C" : 960,
      "bottom" : "512",
      "weights" : {

      },
      "Nx" : 3,
      "pad_mode" : 0,
      "dilation_x" : 2,
      "pad_value" : 0,
      "Ny" : 3,
      "n_parallel" : 1,
      "dilation_y" : 2,
      "blob_weights_f16" : 193
    },
    {
      "bottom" : "710",
      "alpha" : 0,
      "operation" : 25,
      "weights" : {

      },
      "fused_relu" : 0,
      "debug_info" : "Clip_94_min_x_a",
      "top" : "710_min_x_a",
      "type" : "elementwise",
      "name" : "Clip_94_min_x_a",
      "beta" : 0
    },
    {
      "bottom" : "710_min_x_a",
      "alpha" : -1,
      "operation" : 1,
      "weights" : {

      },
      "fused_relu" : 0,
      "debug_info" : "Clip_94_min_minus_x_minus_b",
      "top" : "710_min_x_a_161_post_scale",
      "type" : "elementwise",
      "name" : "Clip_94_min_minus_x_minus_b_scale",
      "beta" : 0
    },
    {
      "bottom" : "710_min_x_a_161_post_scale",
      "alpha" : 0,
      "operation" : 0,
      "weights" : {

      },
      "fused_relu" : 0,
      "debug_info" : "Clip_94_min_minus_x_minus_b",
      "top" : "710_min_x_a_161_post_scale_shift",
      "type" : "elementwise",
      "name" : "Clip_94_min_minus_x_minus_b_shift",
      "beta" : 0
    },
    {
      "bottom" : "710_min_x_a_161_post_scale_shift",
      "alpha" : -6,
      "operation" : 25,
      "weights" : {

      },
      "fused_relu" : 0,
      "debug_info" : "Clip_94_min_minus_x_minus_b",
      "top" : "710_min_minus_x_minus_b",
      "type" : "elementwise",
      "name" : "Clip_94_min_minus_x_minus_b",
      "beta" : 0
    },
    {
      "alpha" : -1,
      "bottom" : "710_min_minus_x_minus_b",
      "weights" : {

      },
      "mode" : 6,
      "debug_info" : "Clip_94",
      "top" : "515",
      "type" : "activation",
      "name" : "Clip_94",
      "beta" : 0
    },
    {
      "pad_r" : 0,
      "fused_relu" : 0,
      "fused_tanh" : 0,
      "debug_info" : "Conv_95",
      "pad_fill_mode" : 0,
      "pad_b" : 0,
      "pad_l" : 0,
      "top" : "713",
      "K" : 960,
      "blob_biases" : 195,
      "name" : "Conv_95",
      "has_batch_norm" : 0,
      "type" : "convolution",
      "n_groups" : 1,
      "pad_t" : 0,
      "has_biases" : 1,
      "C" : 160,
      "bottom" : "515",
      "weights" : {

      },
      "Nx" : 1,
      "pad_mode" : 0,
      "dilation_x" : 2,
      "pad_value" : 0,
      "Ny" : 1,
      "n_parallel" : 1,
      "dilation_y" : 2,
      "blob_weights_f16" : 197
    },
    {
      "bottom" : "509,713",
      "alpha" : 1,
      "operation" : 0,
      "weights" : {

      },
      "fused_relu" : 0,
      "debug_info" : "Add_96",
      "top" : "518",
      "type" : "elementwise",
      "name" : "Add_96",
      "beta" : 0
    },
    {
      "pad_r" : 0,
      "fused_relu" : 0,
      "fused_tanh" : 0,
      "debug_info" : "Conv_97",
      "pad_fill_mode" : 0,
      "pad_b" : 0,
      "pad_l" : 0,
      "top" : "716",
      "K" : 160,
      "blob_biases" : 199,
      "name" : "Conv_97",
      "has_batch_norm" : 0,
      "type" : "convolution",
      "n_groups" : 1,
      "pad_t" : 0,
      "has_biases" : 1,
      "C" : 960,
      "bottom" : "518",
      "weights" : {

      },
      "Nx" : 1,
      "pad_mode" : 0,
      "dilation_x" : 2,
      "pad_value" : 0,
      "Ny" : 1,
      "n_parallel" : 1,
      "dilation_y" : 2,
      "blob_weights_f16" : 201
    },
    {
      "bottom" : "716",
      "alpha" : 0,
      "operation" : 25,
      "weights" : {

      },
      "fused_relu" : 0,
      "debug_info" : "Clip_98_min_x_a",
      "top" : "716_min_x_a",
      "type" : "elementwise",
      "name" : "Clip_98_min_x_a",
      "beta" : 0
    },
    {
      "bottom" : "716_min_x_a",
      "alpha" : -1,
      "operation" : 1,
      "weights" : {

      },
      "fused_relu" : 0,
      "debug_info" : "Clip_98_min_minus_x_minus_b",
      "top" : "716_min_x_a_167_post_scale",
      "type" : "elementwise",
      "name" : "Clip_98_min_minus_x_minus_b_scale",
      "beta" : 0
    },
    {
      "bottom" : "716_min_x_a_167_post_scale",
      "alpha" : 0,
      "operation" : 0,
      "weights" : {

      },
      "fused_relu" : 0,
      "debug_info" : "Clip_98_min_minus_x_minus_b",
      "top" : "716_min_x_a_167_post_scale_shift",
      "type" : "elementwise",
      "name" : "Clip_98_min_minus_x_minus_b_shift",
      "beta" : 0
    },
    {
      "bottom" : "716_min_x_a_167_post_scale_shift",
      "alpha" : -6,
      "operation" : 25,
      "weights" : {

      },
      "fused_relu" : 0,
      "debug_info" : "Clip_98_min_minus_x_minus_b",
      "top" : "716_min_minus_x_minus_b",
      "type" : "elementwise",
      "name" : "Clip_98_min_minus_x_minus_b",
      "beta" : 0
    },
    {
      "alpha" : -1,
      "bottom" : "716_min_minus_x_minus_b",
      "weights" : {

      },
      "mode" : 6,
      "debug_info" : "Clip_98",
      "top" : "521",
      "type" : "activation",
      "name" : "Clip_98",
      "beta" : 0
    },
    {
      "pad_r" : 2,
      "fused_relu" : 0,
      "fused_tanh" : 0,
      "debug_info" : "Conv_99",
      "pad_fill_mode" : 0,
      "pad_b" : 2,
      "pad_l" : 2,
      "top" : "719",
      "K" : 960,
      "blob_biases" : 203,
      "name" : "Conv_99",
      "has_batch_norm" : 0,
      "type" : "convolution",
      "n_groups" : 960,
      "pad_t" : 2,
      "has_biases" : 1,
      "C" : 960,
      "bottom" : "521",
      "weights" : {

      },
      "Nx" : 3,
      "pad_mode" : 0,
      "dilation_x" : 2,
      "pad_value" : 0,
      "Ny" : 3,
      "n_parallel" : 1,
      "dilation_y" : 2,
      "blob_weights_f16" : 205
    },
    {
      "bottom" : "719",
      "alpha" : 0,
      "operation" : 25,
      "weights" : {

      },
      "fused_relu" : 0,
      "debug_info" : "Clip_100_min_x_a",
      "top" : "719_min_x_a",
      "type" : "elementwise",
      "name" : "Clip_100_min_x_a",
      "beta" : 0
    },
    {
      "bottom" : "719_min_x_a",
      "alpha" : -1,
      "operation" : 1,
      "weights" : {

      },
      "fused_relu" : 0,
      "debug_info" : "Clip_100_min_minus_x_minus_b",
      "top" : "719_min_x_a_171_post_scale",
      "type" : "elementwise",
      "name" : "Clip_100_min_minus_x_minus_b_scale",
      "beta" : 0
    },
    {
      "bottom" : "719_min_x_a_171_post_scale",
      "alpha" : 0,
      "operation" : 0,
      "weights" : {

      },
      "fused_relu" : 0,
      "debug_info" : "Clip_100_min_minus_x_minus_b",
      "top" : "719_min_x_a_171_post_scale_shift",
      "type" : "elementwise",
      "name" : "Clip_100_min_minus_x_minus_b_shift",
      "beta" : 0
    },
    {
      "bottom" : "719_min_x_a_171_post_scale_shift",
      "alpha" : -6,
      "operation" : 25,
      "weights" : {

      },
      "fused_relu" : 0,
      "debug_info" : "Clip_100_min_minus_x_minus_b",
      "top" : "719_min_minus_x_minus_b",
      "type" : "elementwise",
      "name" : "Clip_100_min_minus_x_minus_b",
      "beta" : 0
    },
    {
      "alpha" : -1,
      "bottom" : "719_min_minus_x_minus_b",
      "weights" : {

      },
      "mode" : 6,
      "debug_info" : "Clip_100",
      "top" : "524",
      "type" : "activation",
      "name" : "Clip_100",
      "beta" : 0
    },
    {
      "pad_r" : 0,
      "fused_relu" : 0,
      "fused_tanh" : 0,
      "debug_info" : "Conv_101",
      "pad_fill_mode" : 0,
      "pad_b" : 0,
      "pad_l" : 0,
      "top" : "722",
      "K" : 960,
      "blob_biases" : 207,
      "name" : "Conv_101",
      "has_batch_norm" : 0,
      "type" : "convolution",
      "n_groups" : 1,
      "pad_t" : 0,
      "has_biases" : 1,
      "C" : 320,
      "bottom" : "524",
      "weights" : {

      },
      "Nx" : 1,
      "pad_mode" : 0,
      "dilation_x" : 2,
      "pad_value" : 0,
      "Ny" : 1,
      "n_parallel" : 1,
      "dilation_y" : 2,
      "blob_weights_f16" : 209
    },
    {
      "pad_r" : 0,
      "fused_relu" : 0,
      "fused_tanh" : 0,
      "debug_info" : "Conv_102",
      "pad_fill_mode" : 0,
      "pad_b" : 0,
      "pad_l" : 0,
      "top" : "725",
      "K" : 320,
      "blob_biases" : 211,
      "name" : "Conv_102",
      "has_batch_norm" : 0,
      "type" : "convolution",
      "n_groups" : 1,
      "pad_t" : 0,
      "has_biases" : 1,
      "C" : 1280,
      "bottom" : "722",
      "weights" : {

      },
      "Nx" : 1,
      "pad_mode" : 0,
      "dilation_x" : 2,
      "pad_value" : 0,
      "Ny" : 1,
      "n_parallel" : 1,
      "dilation_y" : 2,
      "blob_weights_f16" : 213
    },
    {
      "bottom" : "725",
      "alpha" : 0,
      "operation" : 25,
      "weights" : {

      },
      "fused_relu" : 0,
      "debug_info" : "Clip_103_min_x_a",
      "top" : "725_min_x_a",
      "type" : "elementwise",
      "name" : "Clip_103_min_x_a",
      "beta" : 0
    },
    {
      "bottom" : "725_min_x_a",
      "alpha" : -1,
      "operation" : 1,
      "weights" : {

      },
      "fused_relu" : 0,
      "debug_info" : "Clip_103_min_minus_x_minus_b",
      "top" : "725_min_x_a_176_post_scale",
      "type" : "elementwise",
      "name" : "Clip_103_min_minus_x_minus_b_scale",
      "beta" : 0
    },
    {
      "bottom" : "725_min_x_a_176_post_scale",
      "alpha" : 0,
      "operation" : 0,
      "weights" : {

      },
      "fused_relu" : 0,
      "debug_info" : "Clip_103_min_minus_x_minus_b",
      "top" : "725_min_x_a_176_post_scale_shift",
      "type" : "elementwise",
      "name" : "Clip_103_min_minus_x_minus_b_shift",
      "beta" : 0
    },
    {
      "bottom" : "725_min_x_a_176_post_scale_shift",
      "alpha" : -6,
      "operation" : 25,
      "weights" : {

      },
      "fused_relu" : 0,
      "debug_info" : "Clip_103_min_minus_x_minus_b",
      "top" : "725_min_minus_x_minus_b",
      "type" : "elementwise",
      "name" : "Clip_103_min_minus_x_minus_b",
      "beta" : 0
    },
    {
      "alpha" : -1,
      "bottom" : "725_min_minus_x_minus_b",
      "weights" : {

      },
      "mode" : 6,
      "debug_info" : "Clip_103",
      "top" : "529",
      "type" : "activation",
      "name" : "Clip_103",
      "beta" : 0
    },
    {
      "pad_r" : 0,
      "fused_relu" : 1,
      "fused_tanh" : 0,
      "debug_info" : "Conv_104",
      "pad_fill_mode" : 0,
      "pad_b" : 0,
      "pad_l" : 0,
      "top" : "532",
      "K" : 1280,
      "blob_biases" : 215,
      "name" : "Conv_104",
      "has_batch_norm" : 0,
      "type" : "convolution",
      "n_groups" : 1,
      "pad_t" : 0,
      "has_biases" : 1,
      "C" : 96,
      "bottom" : "529",
      "weights" : {

      },
      "Nx" : 1,
      "pad_mode" : 0,
      "pad_value" : 0,
      "Ny" : 1,
      "n_parallel" : 1,
      "blob_weights_f16" : 217
    },
    {
      "pad_r" : 12,
      "fused_relu" : 0,
      "fused_tanh" : 0,
      "debug_info" : "Conv_106",
      "pad_fill_mode" : 0,
      "pad_b" : 12,
      "pad_l" : 12,
      "top" : "533",
      "K" : 1280,
      "name" : "Conv_106",
      "has_batch_norm" : 0,
      "type" : "convolution",
      "n_groups" : 1280,
      "pad_t" : 12,
      "has_biases" : 0,
      "C" : 1280,
      "bottom" : "529",
      "weights" : {

      },
      "Nx" : 3,
      "pad_mode" : 0,
      "dilation_x" : 12,
      "pad_value" : 0,
      "Ny" : 3,
      "n_parallel" : 1,
      "dilation_y" : 12,
      "blob_weights_f16" : 219
    },
    {
      "pad_r" : 0,
      "fused_relu" : 1,
      "fused_tanh" : 0,
      "debug_info" : "Conv_107",
      "pad_fill_mode" : 0,
      "pad_b" : 0,
      "pad_l" : 0,
      "top" : "536",
      "K" : 1280,
      "blob_biases" : 221,
      "name" : "Conv_107",
      "has_batch_norm" : 0,
      "type" : "convolution",
      "n_groups" : 1,
      "pad_t" : 0,
      "has_biases" : 1,
      "C" : 96,
      "bottom" : "533",
      "weights" : {

      },
      "Nx" : 1,
      "pad_mode" : 0,
      "pad_value" : 0,
      "Ny" : 1,
      "n_parallel" : 1,
      "blob_weights_f16" : 223
    },
    {
      "pad_r" : 24,
      "fused_relu" : 0,
      "fused_tanh" : 0,
      "debug_info" : "Conv_109",
      "pad_fill_mode" : 0,
      "pad_b" : 24,
      "pad_l" : 24,
      "top" : "537",
      "K" : 1280,
      "name" : "Conv_109",
      "has_batch_norm" : 0,
      "type" : "convolution",
      "n_groups" : 1280,
      "pad_t" : 24,
      "has_biases" : 0,
      "C" : 1280,
      "bottom" : "529",
      "weights" : {

      },
      "Nx" : 3,
      "pad_mode" : 0,
      "dilation_x" : 24,
      "pad_value" : 0,
      "Ny" : 3,
      "n_parallel" : 1,
      "dilation_y" : 24,
      "blob_weights_f16" : 225
    },
    {
      "pad_r" : 0,
      "fused_relu" : 1,
      "fused_tanh" : 0,
      "debug_info" : "Conv_110",
      "pad_fill_mode" : 0,
      "pad_b" : 0,
      "pad_l" : 0,
      "top" : "540",
      "K" : 1280,
      "blob_biases" : 227,
      "name" : "Conv_110",
      "has_batch_norm" : 0,
      "type" : "convolution",
      "n_groups" : 1,
      "pad_t" : 0,
      "has_biases" : 1,
      "C" : 96,
      "bottom" : "537",
      "weights" : {

      },
      "Nx" : 1,
      "pad_mode" : 0,
      "pad_value" : 0,
      "Ny" : 1,
      "n_parallel" : 1,
      "blob_weights_f16" : 229
    },
    {
      "pad_r" : 36,
      "fused_relu" : 0,
      "fused_tanh" : 0,
      "debug_info" : "Conv_112",
      "pad_fill_mode" : 0,
      "pad_b" : 36,
      "pad_l" : 36,
      "top" : "541",
      "K" : 1280,
      "name" : "Conv_112",
      "has_batch_norm" : 0,
      "type" : "convolution",
      "n_groups" : 1280,
      "pad_t" : 36,
      "has_biases" : 0,
      "C" : 1280,
      "bottom" : "529",
      "weights" : {

      },
      "Nx" : 3,
      "pad_mode" : 0,
      "dilation_x" : 36,
      "pad_value" : 0,
      "Ny" : 3,
      "n_parallel" : 1,
      "dilation_y" : 36,
      "blob_weights_f16" : 231
    },
    {
      "pad_r" : 0,
      "fused_relu" : 1,
      "fused_tanh" : 0,
      "debug_info" : "Conv_113",
      "pad_fill_mode" : 0,
      "pad_b" : 0,
      "pad_l" : 0,
      "top" : "544",
      "K" : 1280,
      "blob_biases" : 233,
      "name" : "Conv_113",
      "has_batch_norm" : 0,
      "type" : "convolution",
      "n_groups" : 1,
      "pad_t" : 0,
      "has_biases" : 1,
      "C" : 96,
      "bottom" : "541",
      "weights" : {

      },
      "Nx" : 1,
      "pad_mode" : 0,
      "pad_value" : 0,
      "Ny" : 1,
      "n_parallel" : 1,
      "blob_weights_f16" : 235
    },
    {
      "pad_r" : 0,
      "debug_info" : "GlobalAveragePool_115",
      "pad_fill_mode" : 0,
      "pad_b" : 0,
      "pad_l" : 0,
      "size_x" : 14,
      "is_global" : 1,
      "top" : "545",
      "top_shape_style" : 0,
      "stride_x" : 1,
      "avg_or_max" : 0,
      "average_count_exclude_padding" : 1,
      "type" : "pool",
      "name" : "GlobalAveragePool_115",
      "pad_t" : 0,
      "stride_y" : 1,
      "bottom" : "529",
      "weights" : {

      },
      "pad_mode" : 2,
      "size_y" : 8,
      "pad_value" : 0
    },
    {
      "pad_r" : 0,
      "fused_relu" : 1,
      "fused_tanh" : 0,
      "debug_info" : "Conv_116",
      "pad_fill_mode" : 0,
      "pad_b" : 0,
      "pad_l" : 0,
      "top" : "548",
      "K" : 1280,
      "blob_biases" : 237,
      "name" : "Conv_116",
      "has_batch_norm" : 0,
      "type" : "convolution",
      "n_groups" : 1,
      "pad_t" : 0,
      "has_biases" : 1,
      "C" : 96,
      "bottom" : "545",
      "weights" : {

      },
      "Nx" : 1,
      "pad_mode" : 0,
      "pad_value" : 0,
      "Ny" : 1,
      "n_parallel" : 1,
      "blob_weights_f16" : 239
    },
    {
      "weights" : {

      },
      "target_size_w" : 14,
      "grid_sampling_mode" : 1,
      "crop_index_mode" : 0,
      "spatial_scale" : 1,
      "type" : "crop_and_resize",
      "mode" : 1,
      "resized_dims" : 0,
      "bottom" : "548",
      "debug_info" : "Upsample_118",
      "target_size_h" : 8,
      "name" : "Upsample_118",
      "top" : "549"
    },
    {
      "weights" : {

      },
      "debug_info" : "Concat_119",
      "top" : "550",
      "type" : "concat",
      "name" : "Concat_119",
      "bottom" : "532,536,540,544,549"
    },
    {
      "pad_r" : 0,
      "fused_relu" : 1,
      "fused_tanh" : 0,
      "debug_info" : "Conv_120",
      "pad_fill_mode" : 0,
      "pad_b" : 0,
      "pad_l" : 0,
      "top" : "553",
      "K" : 480,
      "blob_biases" : 241,
      "name" : "Conv_120",
      "has_batch_norm" : 0,
      "type" : "convolution",
      "n_groups" : 1,
      "pad_t" : 0,
      "has_biases" : 1,
      "C" : 96,
      "bottom" : "550",
      "weights" : {

      },
      "Nx" : 1,
      "pad_mode" : 0,
      "pad_value" : 0,
      "Ny" : 1,
      "n_parallel" : 1,
      "blob_weights_f16" : 243
    },
    {
      "pad_r" : 1,
      "fused_relu" : 0,
      "fused_tanh" : 0,
      "debug_info" : "Conv_122",
      "pad_fill_mode" : 0,
      "pad_b" : 1,
      "pad_l" : 1,
      "top" : "554",
      "K" : 96,
      "name" : "Conv_122",
      "has_batch_norm" : 0,
      "type" : "convolution",
      "n_groups" : 96,
      "pad_t" : 1,
      "has_biases" : 0,
      "C" : 96,
      "bottom" : "553",
      "weights" : {

      },
      "Nx" : 3,
      "pad_mode" : 0,
      "pad_value" : 0,
      "Ny" : 3,
      "n_parallel" : 1,
      "blob_weights_f16" : 245
    },
    {
      "pad_r" : 0,
      "fused_relu" : 1,
      "fused_tanh" : 0,
      "debug_info" : "Conv_123",
      "pad_fill_mode" : 0,
      "pad_b" : 0,
      "pad_l" : 0,
      "top" : "557",
      "K" : 96,
      "blob_biases" : 247,
      "name" : "Conv_123",
      "has_batch_norm" : 0,
      "type" : "convolution",
      "n_groups" : 1,
      "pad_t" : 0,
      "has_biases" : 1,
      "C" : 96,
      "bottom" : "554",
      "weights" : {

      },
      "Nx" : 1,
      "pad_mode" : 0,
      "pad_value" : 0,
      "Ny" : 1,
      "n_parallel" : 1,
      "blob_weights_f16" : 249
    },
    {
      "weights" : {

      },
      "target_size_w" : 56,
      "grid_sampling_mode" : 1,
      "crop_index_mode" : 0,
      "spatial_scale" : 1,
      "type" : "crop_and_resize",
      "mode" : 1,
      "resized_dims" : 0,
      "bottom" : "557",
      "debug_info" : "Upsample_125",
      "target_size_h" : 32,
      "name" : "Upsample_125",
      "top" : "558"
    },
    {
      "pad_r" : 0,
      "fused_relu" : 1,
      "fused_tanh" : 0,
      "debug_info" : "Conv_126",
      "pad_fill_mode" : 0,
      "pad_b" : 0,
      "pad_l" : 0,
      "top" : "561",
      "K" : 24,
      "blob_biases" : 251,
      "name" : "Conv_126",
      "has_batch_norm" : 0,
      "type" : "convolution",
      "n_groups" : 1,
      "pad_t" : 0,
      "has_biases" : 1,
      "C" : 48,
      "bottom" : "405",
      "weights" : {

      },
      "Nx" : 1,
      "pad_mode" : 0,
      "pad_value" : 0,
      "Ny" : 1,
      "n_parallel" : 1,
      "blob_weights_f16" : 253
    },
    {
      "weights" : {

      },
      "debug_info" : "Concat_128",
      "top" : "562",
      "type" : "concat",
      "name" : "Concat_128",
      "bottom" : "558,561"
    },
    {
      "pad_r" : 1,
      "fused_relu" : 0,
      "fused_tanh" : 0,
      "debug_info" : "Conv_129",
      "pad_fill_mode" : 0,
      "pad_b" : 1,
      "pad_l" : 1,
      "top" : "563",
      "K" : 144,
      "name" : "Conv_129",
      "has_batch_norm" : 0,
      "type" : "convolution",
      "n_groups" : 144,
      "pad_t" : 1,
      "has_biases" : 0,
      "C" : 144,
      "bottom" : "562",
      "weights" : {

      },
      "Nx" : 3,
      "pad_mode" : 0,
      "pad_value" : 0,
      "Ny" : 3,
      "n_parallel" : 1,
      "blob_weights_f16" : 255
    },
    {
      "pad_r" : 0,
      "fused_relu" : 1,
      "fused_tanh" : 0,
      "debug_info" : "Conv_130",
      "pad_fill_mode" : 0,
      "pad_b" : 0,
      "pad_l" : 0,
      "top" : "566",
      "K" : 144,
      "blob_biases" : 257,
      "name" : "Conv_130",
      "has_batch_norm" : 0,
      "type" : "convolution",
      "n_groups" : 1,
      "pad_t" : 0,
      "has_biases" : 1,
      "C" : 96,
      "bottom" : "563",
      "weights" : {

      },
      "Nx" : 1,
      "pad_mode" : 0,
      "pad_value" : 0,
      "Ny" : 1,
      "n_parallel" : 1,
      "blob_weights_f16" : 259
    },
    {
      "pad_r" : 0,
      "fused_relu" : 0,
      "fused_tanh" : 0,
      "debug_info" : "Conv_132",
      "pad_fill_mode" : 0,
      "pad_b" : 0,
      "pad_l" : 0,
      "top" : "567",
      "K" : 96,
      "blob_biases" : 261,
      "name" : "Conv_132",
      "has_batch_norm" : 0,
      "type" : "convolution",
      "n_groups" : 1,
      "pad_t" : 0,
      "has_biases" : 1,
      "C" : 1,
      "bottom" : "566",
      "weights" : {

      },
      "Nx" : 1,
      "pad_mode" : 0,
      "pad_value" : 0,
      "Ny" : 1,
      "n_parallel" : 1,
      "blob_weights_f16" : 263
    },
    {
      "weights" : {

      },
      "target_size_w" : 320,
      "grid_sampling_mode" : 1,
      "crop_index_mode" : 0,
      "spatial_scale" : 1,
      "type" : "crop_and_resize",
      "mode" : 1,
      "resized_dims" : 0,
      "bottom" : "567",
      "debug_info" : "Upsample_133",
      "target_size_h" : 320,
      "name" : "Upsample_133",
      "top" : "568"
    },
    {
      "bottom" : "568",
      "weights" : {

      },
      "mode" : 3,
      "debug_info" : "Sigmoid_134",
      "top" : "569",
      "type" : "activation",
      "name" : "Sigmoid_134"
    },
    {
      "bottom" : "",
      "k" : 1,
      "n" : 1,
      "weights" : {

      },
      "h" : 1,
      "debug_info" : "570",
      "constant_blob" : 265,
      "top" : "570",
      "w" : 1,
      "type" : "load_constant",
      "name" : "570"
    },
    {
      "bottom" : "569,570",
      "alpha" : 1,
      "operation" : 1,
      "beta" : 0,
      "weights" : {

      },
      "fused_relu" : 0,
      "debug_info" : "Mul_136",
      "top" : "output_mask",
      "type" : "elementwise",
      "name" : "Mul_136",
      "attributes" : {
        "is_output" : 1
      }
    }
  ]
}